sort_game_net/tests/resources/integer_encoded.pth (torch_old, 34319 bytes, 11 tensors)

actor_layers.0.weight f4 [50, 20]
000000 ce 8c d8 3c a3 09 51 bd b4 d3 ea bd a9 37 93 bd
       0.026434328 -0.05103458 -0.114661604 -0.07188351
000010 ec e1 54 3d 29 bf b1 bc 35 f0 29 3e 69 99 01 bd
       0.05197327 -0.021697598 0.16595538 -0.031640444
000020 84 c1 40 bd f5 a4 5d 3b 2a f7 34 bd c8 27 9d 3d
       -0.04705955 0.0033820246 -0.044181027 0.07673603
000030 90 c2 fe bd 21 e9 b6 bd 7f 15 a1 bd e9 dd 52 3d
       -0.124394536 -0.089311846 -0.07865428 0.05148116
000040 e9 ee 91 3f 8f a7 bd bc a1 a9 9f bd ed 5b 9d 3c
       1.1401035 -0.023151187 -0.07796026 0.019208873
000050 b5 1c ca bd f2 85 64 bd 28 34 8a 3d da b9 33 3e
       -0.09868757 -0.055791803 0.06748229 0.17551365
000060 fc ba 26 bb c3 62 5c bd a3 3c 04 bd c2 93 4c bd
       -0.0025441041 -0.053805124 -0.03228439 -0.0499456
000070 ca d2 92 bd 81 98 d0 bd 90 24 3f bd fa 19 ca bd
       -0.07169111 -0.10185338 -0.046665728 -0.09868236
000080 90 0f b8 3d 70 76 99 be 52 f2 07 bf dc 75 07 bd
       0.08987343 -0.29973173 -0.53104126 -0.033071384
000090 b8 a7 42 bf 37 17 53 3e e8 87 61 be 47 8b 43 bb
       -0.7603717 0.20614325 -0.220245 -0.0029837654
0000a0 59 26 09 be 93 14 ef 3c 63 47 d1 bc ac a2 61 3e
       -0.13393535 0.029184615 -0.025546735 0.2203471
0000b0 c5 9f 56 be 87 68 c1 3c 9e e5 36 bd a4 8c 79 3d
       -0.20959385 0.023609413 -0.044652574 0.06092514
0000c0 58 85 47 be f7 4c 31 bd b0 c1 1e ba a6 01 d9 bd
       -0.1948446 -0.04328629 -0.00060560834 -0.105960175
0000d0 e7 49 48 3d 74 ce 03 3e 5f 14 81 3c e9 4a b6 3d
       0.048898604 0.12871724 0.015756784 0.08901007
0000e0 7d b2 cf be 25 10 81 bc 14 09 bf 3e 98 3a 7d bd
       -0.40565863 -0.015754769 0.37311614 -0.061823457
0000f0 ea 1b 5a bd b1 1c 2a 3d 94 0a 08 3e 9c 4c 9b bd
       -0.053249277 0.04153127 0.13285285 -0.075829715
000100 ee b7 f5 3d 42 23 69 3d 4a ef 92 bd ed 2f 86 bd
       0.119979724 0.05691839 -0.07174547 -0.0655211
000110 66 2b bc bd b5 9a b3 3c fc ad 70 3d 73 3f ce 3d
       -0.09187965 0.021924356 0.058759674 0.10070696
000120 53 20 1a 3b a6 b9 2d be 24 6c e5 bd 94 86 15 bd
       0.0023517802 -0.1696535 -0.11202267 -0.036505297
000130 c8 d2 a3 3f 2e 48 09 3d 23 50 af 3d 15 bf a8 bd
       1.27987 0.0335161 0.08560207 -0.08239571
000140 9b b6 83 bd dc 0e a4 bc a6 b6 8a 3d 74 d6 9e bd
       -0.064313136 -0.020026617 0.06773119 -0.077557474
000150 c4 ed 4f bc 5b 10 a8 bb fa 87 c7 bd f1 eb 14 bc
       -0.012690965 -0.005128903 -0.09742732 -0.009089456
000160 b2 86 74 3d 84 e5 aa bc 77 e9 b3 bd fe 61 f0 3d
       0.059698768 -0.020861395 -0.08784764 0.117374405
000170 76 7e d7 bd 34 6e 0c bd 84 82 84 bd 11 f5 cb bd
       -0.105221674 -0.034284785 -0.064702064 -0.09958852
000180 ff 43 a8 3f e2 05 82 bd 92 a1 d9 bd eb bd 6a bd
       1.3145751 -0.06348778 -0.1062652 -0.057310026
000190 f9 3c 39 3d a5 f3 18 3c b2 fa 20 bb a5 49 19 3d
       0.045224164 0.009335433 -0.0024563489 0.03742375
0001a0 a9 de 14 3c 97 64 d0 3b 3c 49 8c bb 0a ea e4 3c
       0.009086289 0.0063596475 -0.004281191 0.02794363
0001b0 6f fb df 3c 8d a0 8c bc d1 ca 5b 3c d3 ff c2 bc
       0.027341573 -0.0171664 0.013415054 -0.023803627
0001c0 d1 1f d2 3c db 2e b7 bb 5d ae 84 3c b3 7f 30 3d
       0.025649937 -0.0055903024 0.016196424 0.043090533
0001d0 75 85 1e bf 51 79 f0 3c 69 71 24 bf 30 f6 40 be
       -0.6192239 0.029354723 -0.6423555 -0.18843913
0001e0 62 6d b0 3d a0 03 d1 3d 8d 62 ac 3d 27 57 74 ba
       0.08614613 0.102057695 0.084172346 -0.0009320848
0001f0 ca 10 c5 3d f6 d7 84 bd b0 5b 28 bd a5 38 0b 3d
       0.09622343 -0.06486504 -0.041103065 0.033989567
000200 17 a5 00 3d 37 51 86 bd 1d 3a b2 3d 15 2b 93 3d
       0.031407442 -0.06558459 0.087024905 0.071859516
000210 c4 a0 2c bd 81 ac f9 3d fc a0 30 be 7a db 86 3e
       -0.042145506 0.12191106 -0.1724891 0.26339322
000220 da 4e b4 3e b4 fb d0 3e 70 f3 af 3d 8a 6d 59 bd
       0.3521641 0.40817034 0.08591354 -0.05308298
000230 d2 e5 80 bd c6 6a 9b 3d dd b1 a6 3c 33 d9 22 be
       -0.06293835 0.07588725 0.020348484 -0.15903167
000240 fd d3 db bc cb b9 6a 3c a9 0c 2d be 0d 5c be 3d
       -0.026834482 0.014326523 -0.1689936 0.09294901
000250 b9 2c 31 be 68 df 20 be 18 77 d6 bd 80 74 20 3d
       -0.17302217 -0.15710223 -0.10471934 0.039173603
000260 f0 72 83 3e 0c b3 b9 be cf f9 00 3e 3a 7f 6b 3c
       0.25673628 -0.36269414 0.12595294 0.014373595
000270 e8 9a 01 bf 5e 44 48 3c b3 87 95 3d 4b ca 37 be
       -0.50626993 0.012223331 0.07301273 -0.17948262
000280 e7 d0 33 3d f2 38 5d 3c f5 e4 60 bd 7c ee ba be
       0.043900397 0.013502346 -0.05490585 -0.36510074
000290 11 7d 0b bd 2e 09 2f 3d c6 13 5f bd 8c 23 90 bd
       -0.03405482 0.042733364 -0.054462217 -0.0703803
0002a0 fb 85 19 be 65 ef 88 3d d8 84 ca bd 1b 89 88 bd
       -0.14992516 0.06686286 -0.09888619 -0.06666776
0002b0 ca 97 ce be fe 20 a8 3d db c2 73 bd da f3 97 3d
       -0.4035018 0.08209418 -0.059512 0.07419558
0002c0 9a b0 33 bf fc e6 7b bc 23 e6 28 bd 4b f9 0c 3e
       -0.7019135 -0.015374895 -0.0412351 0.13766973
0002d0 4f 18 08 3e 1f 9d a8 3a e8 52 05 3c 82 ee a8 bd
       0.13290523 0.0012864209 0.008137442 -0.08248617
0002e0 0a dc 78 bc 1e 4c cc bc b3 df ff 3d 6a 61 56 bd
       -0.01518918 -0.02493864 0.12493839 -0.052338995
0002f0 14 6f 82 3d 52 93 ad bc 7e a5 b8 3d 71 c6 67 3d
       0.06368843 -0.021188412 0.0901594 0.056585733
000300 62 ee e2 bd c0 e7 aa bd 66 ef 43 bd 47 d6 c1 bd
       -0.11080624 -0.08344984 -0.04783573 -0.09464698
000310 68 58 69 3f d0 c7 70 bd a6 1e d3 bd 54 fc 46 3d
       0.9115052 -0.058784306 -0.1030858 0.048580483
000320 45 11 16 3d 77 c7 82 3b 68 da 84 bc ca 35 b8 3d
       0.036637563 0.003991063 -0.016217425 0.089946344
000330 05 4e ff bd 3c 11 3b 3d b8 8f 2e be 15 b0 04 3d
       -0.12466053 0.045670733 -0.17047012 0.032394487
000340 e9 97 5f 3d 6b 66 cb be a3 ee cb bb 3f 1d 5f 3e
       0.054588232 -0.39726576 -0.006223516 0.217885
000350 05 85 f3 bd 4d e3 36 3e f2 1a 53 bd 1c 2f 1c 3c
       -0.11890606 0.17860146 -0.05153937 0.009532716
000360 42 00 e2 be c2 c1 86 3e 66 68 bf bd f8 53 53 3d
       -0.44140822 0.263197 -0.09346084 0.05159375
000370 8d ea e3 3d 45 14 39 3d 45 0e 0c bd c9 2c 2a 3e
       0.111287214 0.045185346 -0.034193296 0.16618647
000380 da ed 58 be 79 d1 c9 bd 82 a0 6f bd 0d 97 4b be
       -0.21184483 -0.09854407 -0.05850268 -0.1988184
000390 93 9a 82 bd 34 e8 5c 3d 1d c2 f2 3c 9e 58 2a 3e
       -0.06377139 0.053932384 0.029633576 0.16635367
0003a0 12 1d 1d be 28 17 94 be df 8a 04 3e 8b e4 84 3d
       -0.1534312 -0.28923917 0.129436 0.064889036
0003b0 d6 af d6 be 30 79 2a be f6 75 71 bd 94 2a 89 3e
       -0.41931027 -0.16647792 -0.058950387 0.26790297
0003c0 85 15 18 be ff 7c ab bd 65 0a 34 3d 8b bb 06 3d
       -0.14851959 -0.083734505 0.043955225 0.0328937
0003d0 4f fe b9 3d e2 ad 37 3c 96 61 ed 3d ad dd 57 bd
       0.09081709 0.0112108905 0.11590879 -0.05270164
0003e0 8b 11 cc 3c c4 b7 dd bd 81 2f 0b 3d 64 46 73 bd
       0.024910709 -0.10826066 0.03398085 -0.0593933
0003f0 52 8c f5 bd 09 d3 44 3d 46 83 e6 bc 58 eb ed 3c
       -0.119896546 0.04805282 -0.028138768 0.029042885

actor_layers.0.bias f4 [50]
000000 99 57 e8 bc ce f9 01 3f 2a ab a2 3e 3e fc 01 bf
       -0.028362082 0.50771797 0.31771213 -0.50775516
000010 f3 b4 67 be e8 5a 06 3f 7a cb 11 3e 48 fc dd 3e
       -0.2262762 0.5248246 0.14237776 0.43356538
000020 3f f4 46 3e 71 a2 10 3e 97 ac 18 3f fa a6 c6 3d
       0.1942911 0.14124466 0.5963835 0.09699817
000030 94 eb af be cd 74 e7 be 4e 21 b3 be 98 32 28 be
       -0.3435942 -0.452063 -0.34986347 -0.1642555
000040 fb ba a1 3e 4b 8d 73 3f ed ae 0b bf 28 32 c2 3e
       0.31587967 0.9513747 -0.5456379 0.3792889
000050 13 c4 28 3f 58 af 0e 3f 03 28 6a 3e 85 da 7d be
       0.65924186 0.55736303 0.22866826 -0.2479039
000060 d2 42 81 3e a8 80 1c bf c7 f9 74 3f fa 92 ff 3e
       0.25246292 -0.61133814 0.9569363 0.49916822
000070 02 1e fc 3e 0a 0d 03 3f 98 2d 2c be 93 e2 f5 be
       0.49241644 0.5119177 -0.16814268 -0.48024425
000080 c9 50 19 3f c0 c7 d9 3e a2 75 22 3f 8d aa fd 3e
       0.59888893 0.4253521 0.63460743 0.49544182
000090 b2 ba 33 bf 7f ea 06 3f c9 69 fd 3e 75 8f ed 3e
       -0.7020675 0.5270156 0.4949477 0.46398512
0000a0 f8 a6 18 3f fd e4 3e 3f da b3 b3 3e 4e b1 6e be
       0.59629774 0.7456816 0.35098153 -0.23309824
0000b0 e2 a5 6d be ff 17 46 3f 1f 10 a9 3e b6 de 33 3f
       -0.2320781 0.77380365 0.33020112 0.70261705
0000c0 e2 86 01 bf e0 12 ba 3e
       -0.5059644 0.36342525

actor_layers.1.weight f4 [50, 50]
000000 8f 7b 76 3e 68 8b 61 be 85 c3 16 be ad 5c 58 3e
       0.24070571 -0.22025836 -0.14723022 0.21129103
000010 5b 82 bf 3d ed 98 44 be de 17 fc bd a1 f9 5b be
       0.09351035 -0.19198962 -0.1230924 -0.21481945
000020 37 b4 c9 be 26 74 ae 3d cf 3d 46 be 63 5d 65 be
       -0.39395306 0.08518247 -0.19359516 -0.22398905
000030 1e 8c c4 3d 96 c2 05 3d 80 f7 a7 3d 19 41 99 3d
       0.09597038 0.032656275 0.08201504 0.074831195
000040 32 d3 de be 22 f5 8f be f9 3d a0 3e 76 c8 56 be
       -0.43520504 -0.2811671 0.3129728 -0.20974907
000050 84 6d 9f be 1d fd ec bd b4 b5 fc bd b5 42 aa 3d
       -0.3113824 -0.11571715 -0.123393446 0.083135046
000060 86 c9 1c be d3 fe df 3c e1 15 0f be 0c 96 47 be
       -0.1531125 0.02734319 -0.1397319 -0.19490832
000070 20 4f a9 be 5f c7 9d be 45 d6 1d 3e 73 36 43 3e
       -0.3306818 -0.3081617 0.15413769 0.1906374
000080 8e 5b c1 be 8f d3 27 be 69 81 df bd 78 ce b7 bd
       -0.37765163 -0.16389297 -0.10913355 -0.08974928
000090 48 c6 8a 3e cb c0 6d be fc 93 08 be 14 82 6f be
       0.27104402 -0.23218076 -0.13337702 -0.23389465
0000a0 83 f1 21 be 03 fd a8 be 19 9e ed bd 56 db 6f 3e
       -0.15814786 -0.33005533 -0.1160242 0.23423514
0000b0 ed b3 22 3e 69 c6 61 be b1 d3 6c be 35 ff 97 bb
       0.15888949 -0.22048344 -0.23127629 -0.0046385773
0000c0 59 b0 27 3e 57 34 64 3d c9 a5 f6 3c 45 ae c3 bd
       0.16375865 0.055713978 0.03010835 -0.09554724
0000d0 43 f8 d6 bd 38 7c 96 3e 83 23 8f 3e 74 da 6d be
       -0.10496571 0.29391646 0.2795678 -0.23227865
0000e0 10 8f 87 3d 6e 2f 81 3c 25 8f 6a bd 78 13 53 3e
       0.06619084 0.015769687 -0.05726542 0.20612895
0000f0 26 22 61 bb 04 e1 01 bd 46 e2 20 3e 62 3d 0d be
       -0.003435263 -0.031708732 0.15711316 -0.13792947
000100 bd 31 f6 3d ea 01 8e 3e 85 72 3b be cb 75 50 be
       0.120212056 0.27735835 -0.18305404 -0.20357434
000110 d7 d6 a4 3e 0e ab d8 bd 55 80 d0 bd 9e d6 98 bd
       0.3219516 -0.10579501 -0.101807274 -0.0746281
000120 db 95 21 3e da ae e1 3d c0 74 0b 3c 18 ec 6a 3e
       0.15779822 0.110196784 0.008511722 0.22941625
000130 91 cb 5c bd 60 f1 15 be cf 82 b3 bd da 25 de bd
       -0.053905074 -0.14642859 -0.08765184 -0.10847063
000140 71 cc 24 3e 83 53 3c 3e 2c 2e 1d be 5d 41 9d 3d
       0.16093613 0.18391232 -0.15349644 0.07678483
000150 c7 38 43 be 63 be 0e 3e e7 c6 a7 bc f4 2c 49 be
       -0.19064628 0.13939814 -0.020480586 -0.19646055
000160 15 35 5e be f5 37 02 be 9c 6a c8 bd 96 af 53 bd
       -0.21699937 -0.12716658 -0.09785959 -0.051681124
000170 54 c6 cd bc ce 0b 9c 3e a0 d0 ae 3e dd 40 8f bd
       -0.025118984 0.30477756 0.34143543 -0.069947936
000180 45 a7 33 bd 4f cb 7e bd 41 2b 74 3d ae 9c 34 bc
       -0.043860693 -0.06220561 0.059611563 -0.0110236835
000190 f2 f6 bf bd 17 cc 99 be f2 ee 6c be a3 45 79 bc
       -0.09373273 -0.3003852 -0.23138025 -0.015214357
0001a0 22 74 3c be de 34 16 3e 52 0a b3 3e 49 e6 4c bc
       -0.18403676 0.14668605 0.3496881 -0.012506076
0001b0 68 84 06 be 82 43 55 be 11 bd 9f 3d 63 17 07 be
       -0.13136446 -0.20826533 0.077997334 -0.13192515
0001c0 32 a2 26 bd a6 a0 9c be 2a cc c1 3b 8f b3 b5 bd
       -0.040682025 -0.30591315 0.005914231 -0.08872139
0001d0 bd 3e 45 bb ea b7 23 3d f5 fc 53 bd 04 b1 57 bd
       -0.003009721 0.039970316 -0.05175491 -0.05265905
0001e0 b3 da a6 be 76 b6 39 be f0 12 8c 3e 6b cc 33 3e
       -0.3258873 -0.1813601 0.27358198 0.17558448
0001f0 48 1e 53 be 4d 30 f5 3d 49 1d 15 be 90 e3 0c 3e
       -0.2061702 0.11972103 -0.14561953 0.13758683
000200 35 86 28 bd 04 90 69 3e 0e 4a 3d be 5b 9c 7d 3c
       -0.041143615 0.22808844 -0.18485281 0.015479173
000210 b4 fc 16 be 67 87 a9 be a8 03 cf be f2 ac d6 bc
       -0.14744836 -0.33111116 -0.40432477 -0.026205514
000220 d9 9c 8b 3d 92 73 73 3d 07 de 16 3f 8b 3e a6 3d
       0.06817026 0.05943639 0.58932537 0.08117398
000230 e9 9c e6 be 13 d9 59 3d 26 b4 54 3d c8 83 02 be
       -0.45041588 0.053185534 0.051929615 -0.12745583
000240 fd ba a8 3c 38 4e 0e bd a9 70 bd bd f8 96 cb be
       0.020596975 -0.034742564 -0.09250004 -0.39763618
000250 49 7d c6 bd 52 82 91 3e 3e ee fb 3d e9 df 86 be
       -0.09691865 0.2841974 0.123013005 -0.26342705
000260 ec 47 01 be d0 c2 10 3e a7 d7 d0 3c 5a 85 cc bd
       -0.12625092 0.14136815 0.025493456 -0.09986372
000270 af 4a 91 3d 01 5e a1 bc f6 0a 91 be 15 12 b2 3c
       0.07094323 -0.019698145 -0.28328675 0.021737138
000280 64 53 d8 bd 09 a5 c1 bd 18 16 43 3e 26 41 8c 3c
       -0.105627805 -0.09455306 0.19051397 0.017120909
000290 de aa 0b 3e 5d f5 e7 bc 65 9a f6 be 66 59 b0 bd
       0.136394 -0.02831524 -0.4816467 -0.086108014
0002a0 3a 87 18 3e 30 a1 56 be d7 b1 20 be 19 d2 cb bd
       0.14895335 -0.20959926 -0.1569284 -0.09952182
0002b0 76 08 19 be be d4 a7 3d 29 f1 df bd 57 ac ff 3d
       -0.14944634 0.08194874 -0.109346695 0.12484043
0002c0 3f 1f 1d be dd b7 dd be 12 de 7b be d0 2f 30 be
       -0.1534395 -0.4330434 -0.24596432 -0.17205739
0002d0 0e 26 50 3d ee 1b 64 3e d6 d1 9c be b9 e3 ee bd
       0.05081754 0.2227628 -0.30628842 -0.116645284
0002e0 85 67 e1 bd cc 43 4f be e1 0a fe 3d 97 02 49 be
       -0.11006073 -0.20240706 0.12404419 -0.19629894
0002f0 b1 c2 e4 bd d1 25 0a be ab 7a 33 bc fc 08 51 be
       -0.11169947 -0.13490988 -0.010954539 -0.20413584
000300 d9 b9 07 be ad 28 df 3d be f0 90 3d 3c fb 0c bf
       -0.13254489 0.1089643 0.07077168 -0.55070853
000310 70 06 4d 3c 03 9d 64 be 37 15 17 3e 34 13 55 bc
       0.012513742 -0.2232552 0.14754187 -0.013005067
000320 43 a7 14 3e 6c e5 57 bc 0f 1e e6 3d 9a 19 e3 3d
       0.1451693 -0.013177257 0.11236202 0.110888675
000330 33 a3 9e 3e 64 a4 90 3c 41 a8 ee 3d db 2e 81 bc
       0.30983886 0.017656513 0.11653186 -0.015769413
000340 f4 70 cb bd 1f fc 21 3e f2 50 d4 bc 9d 0b 10 bd
       -0.099336535 0.15818833 -0.025917504 -0.035167325
000350 ca 19 5f 3e aa 09 a9 ba 1f 7d 58 3e 13 44 f8 3c
       0.21787181 -0.0012896557 0.2114148 0.030305898
000360 ca fe 48 bd 7a aa 85 bd 6c 7b 91 3e 78 8a 3f be
       -0.04907111 -0.065266564 0.28414476 -0.18705165
000370 d0 75 91 bd b8 31 5b 3b c2 51 14 3e a0 0d 60 3e
       -0.07102549 0.0033446383 0.14484313 0.21880198
000380 fe 96 cb 3d bf ec 94 3d 62 40 16 bd eb 88 90 3e
       0.09940909 0.07271718 -0.036682494 0.2822946
000390 3c aa 86 3d 89 61 a7 bd 3e 9c a3 3c 07 66 90 3d
       0.065754384 -0.081729 0.019971963 0.0705071
0003a0 30 3d ed bd cf 89 ca bd e7 f0 e9 bd 1f 52 a1 bd
       -0.11583936 -0.09889566 -0.114229016 -0.078769915
0003b0 b8 67 6c 3e aa 23 dc bd c6 b6 2a 3d c1 c5 fb 3c
       0.2308644 -0.1074899 0.041678213 0.030733945
0003c0 a4 0a a1 3d dc d6 60 bd 5a 10 89 3d c1 bd 74 3e
       0.07863358 -0.054892406 0.06692572 0.2390051
0003d0 19 54 b7 3e a1 5b 7d 3d 46 c1 e9 bc bf 99 5b b8
       0.3580635 0.061854962 -0.028534543 -5.2356856e-05
0003e0 71 9f d8 3d d5 bb 31 3e 84 46 e1 3d 70 e3 c1 bd
       0.10577286 0.17356808 0.10999778 -0.094672084
0003f0 42 64 04 be 6d 92 b8 3e 76 e4 89 3e 72 81 71 be
       -0.1292887 0.36049214 0.26932114 -0.23584536

actor_layers.1.bias f4 [50]
000000 ef 23 08 bf 10 39 fd 3d cd 4d 09 bd d2 a9 21 bf
       -0.5317983 0.123643994 -0.033521462 -0.6314975
000010 fa 2d d5 3d b2 5c 46 be 4c 27 40 3e 7a 87 f0 3d
       0.1040916 -0.19371298 0.1876499 0.1174459
000020 6b 9d d8 bd 37 23 ac 3e da 72 67 3e 20 b8 ee bc
       -0.105769 0.33620617 0.22602406 -0.029140532
000030 21 c5 9c bd 55 69 41 bf cd 12 57 bd a5 0d bc bd
       -0.07654787 -0.7555135 -0.052508164 -0.0918229
000040 2d c0 3a 3e 95 49 0f 3f 26 51 cd 3e b4 dc 94 3e
       0.18237372 0.5597165 0.40100974 0.29074633
000050 93 df a0 bc 7e b4 32 3e 77 0c 1f 3d 72 b4 55 3d
       -0.019637858 0.17451665 0.038830247 0.05217404
000060 d6 d0 7a 3e 77 cd 8f bd b8 21 c7 3e 14 66 0c 3e
       0.24493727 -0.07021611 0.38892913 0.13710815
000070 84 65 e7 3e 6a e4 c5 bd 56 d5 9e be 50 1b 2f 3e
       0.45194638 -0.09662707 -0.31022137 0.17100263
000080 f7 bc 92 3e 7f f5 11 3e 73 81 b8 be 91 03 d9 3e
       0.28659794 0.14253806 -0.36036262 0.42385533
000090 ac 3b 05 3e dd 13 66 3e d6 11 89 3e 58 fa c0 3d
       0.13011044 0.22468515 0.2677142 0.09422749
0000a0 54 e5 92 3e b0 32 c9 3e f6 5b c1 3d 44 46 68 3e
       0.28690588 0.39296484 0.09441368 0.22683054
0000b0 45 9f 8c 3e 11 8b 86 be 77 cf e3 3d ef 4f d7 bd
       0.27465263 -0.26277974 0.11123555 -0.10513293
0000c0 4b ee 4a bf de 4e 54 3e
       -0.79269856 0.2073321

actor_layers.2.weight f4 [16, 50]
000000 4b 95 00 3f 1e 13 3e 3e 8e d8 c9 be e2 6e 40 3e
       0.50227803 0.1856198 -0.3942303 0.18792298
000010 64 05 02 bf dd 41 01 3f 14 0e 01 3e 71 02 fc 3e
       -0.50789475 0.50491124 0.12603027 0.49220613
000020 53 66 48 3e bd f9 82 bd de 4b 89 bd 08 af a1 bc
       0.19570284 -0.0639529 -0.06703924 -0.019736782
000030 cc 53 1d be bf 4c 1a bd 46 b1 8f be 0a 67 a5 3e
       -0.15363997 -0.037670847 -0.28064936 0.32305175
000040 32 ff dd 3d 80 7a e7 3d d0 61 45 bd f1 3a 0e bb
       0.1083969 0.11302662 -0.048188984 -0.0021702612
000050 47 60 e8 be 45 b3 93 bd a5 f1 69 3e 54 ad 02 bf
       -0.45385954 -0.07211927 0.22846086 -0.5104573
000060 19 44 77 be 25 32 c6 3e d1 4f 03 bd a5 24 36 bf
       -0.24147071 0.38710132 -0.03205854 -0.71149665
000070 b9 c5 00 3e 1f 18 07 3f 4c 3f 42 3f 69 fe 81 3e
       0.12575425 0.5277118 0.75877833 0.25389412
000080 bf 64 ac 3e b7 c6 46 3d 4c 40 37 3f 0a 6c 7b be
       0.33670613 0.048529353 0.71582484 -0.24552932
000090 7f 77 9a 3d 25 60 bf bc 42 91 ac bd d6 44 f2 be
       0.07542323 -0.023361275 -0.08426143 -0.47318143
0000a0 70 8d 22 bd b3 a9 a6 bc 39 72 23 3e 90 67 7b 3e
       -0.039685667 -0.02034459 0.15961541 0.24551225
0000b0 96 9f 28 bf 61 8f 66 bf e1 e7 a0 3d 90 1b 83 3e
       -0.6586851 -0.9006253 0.078567274 0.25606966
0000c0 6c 02 2a 3e d9 98 e4 3c d5 5b 83 3f a7 aa 9b bf
       0.16602486 0.027904915 1.02624 -1.2161454
0000d0 22 3b 4a bd b7 b8 32 3e 57 c7 22 3e 0b 08 a0 3f
       -0.0493728 0.17453276 0.15896355 1.2502455
0000e0 8e 1a d7 3d be 1e 2d 3d fa 79 5a 3e 0c ec d1 3d
       0.10503112 0.042265646 0.21335593 0.102501005
0000f0 09 93 73 3c c6 7c fd 3c 03 62 c8 bb 5d 02 30 3f
       0.014866599 0.030943286 -0.0061151995 0.68753606
000100 ca ac 67 be 14 59 59 3e 87 cd 14 3e bb f3 15 3e
       -0.22624508 0.21225387 0.14531527 0.14643757
000110 48 9f 58 3d ed 46 bb bc 29 9e 0b be 63 4c 03 3e
       0.052886277 -0.022860968 -0.13634552 0.12822108
000120 6e cb 0c bf 26 84 f5 bd 12 d0 c0 3d ca 66 83 bf
       -0.5499791 -0.11988096 0.09414686 -1.0265744
000130 98 5b 08 be 05 0b e3 3c 86 30 8c 3d 2f 66 dd 3e
       -0.1331619 0.027715215 0.068451926 0.43242022
000140 93 43 98 bf 88 16 16 3e c9 a1 e6 3b 19 98 9f 3c
       -1.1895622 0.14657032 0.0070383293 0.019481706
000150 92 51 7d 3f ca 04 55 bd f2 29 83 bd ee 92 c5 bc
       0.9895259 -0.05200652 -0.06404485 -0.024117913
000160 8c 3e 28 be 9a ac 7b 3d 43 33 85 3d 4a 05 21 3e
       -0.1643011 0.061443903 0.06503918 0.15724674
000170 a0 bb ec 3d 4c f5 a9 be 30 29 93 3d 24 aa e4 3e
       0.11559224 -0.3319496 0.0718559 0.44661057
000180 45 16 c0 3a 3a 8f 0d 3e 5d 35 36 3e 3d 6d 4a 3d
       0.0014655074 0.13824168 0.17793794 0.049420584
000190 6a bb ad be e5 b9 89 be 49 09 b5 3e e6 fe 1d be
       -0.33932048 -0.2689964 0.35358647 -0.15429267
0001a0 72 6b fa 3d bb 53 89 be 1f 9c 1d 3e 3c db c4 bd
       0.12227525 -0.26821694 0.15391587 -0.09612128
0001b0 52 90 56 3e 80 2c 54 3d 40 9a 9d 3c a1 c6 dc be
       0.20953491 0.05180025 0.019238591 -0.43120292
0001c0 99 d7 e2 3d 00 5e 86 3f 96 71 09 be f2 99 4a bd
       0.11076278 1.0497437 -0.13422236 -0.04946322
0001d0 b7 6d c7 3d f8 62 ed 3d 75 7d 04 be 3d db a4 bc
       0.09737723 0.115911424 -0.12938483 -0.020124072
0001e0 34 48 8d bd 49 13 54 3e ed b6 50 3d 5f 5e 62 bd
       -0.06898537 0.20710482 0.0509557 -0.05526578
0001f0 bb 23 3d 3e d7 26 f4 bd 18 48 6b be 67 5e ef 3d
       0.18470661 -0.119214706 -0.2297672 0.11687928
000200 84 4c 18 3e 9a 92 64 3e af 6c e8 be 72 6e 02 3d
       0.14872938 0.22321549 -0.4539542 0.03184361
000210 3e 97 2b bd 11 de 42 bc 49 3e 69 bf 33 d6 3c 3d
       -0.041892283 -0.011893765 -0.91110665 0.046102714
000220 ab 75 e2 bd 0f b3 50 bd 28 a3 78 bd 77 52 9e 3c
       -0.110576 -0.050952014 -0.060702473 0.019326432
000230 d7 07 3f 3c fa 3c 02 3e cd 02 d3 bc 5c f4 c4 be
       0.011659584 0.12718573 -0.025758171 -0.3846768
000240 66 e8 63 3d 64 24 36 3e 01 e1 56 be a5 8d 19 be
       0.055641554 0.1778732 -0.2098427 -0.1499544
000250 3b 25 fb be bb aa af 3c ee 5e 96 bd d2 49 e6 3d
       -0.49051842 0.021443715 -0.07342325 0.11244549
000260 fd d8 90 3e 7d 03 03 3e 4e 68 af bc db ae 60 bd
       0.2829055 0.127943 -0.021412041 -0.054854255
000270 e5 cc c8 3d 6b 3b 04 bc eb cc cb 3d 59 99 20 3d
       0.098047055 -0.008070807 0.099511944 0.039208744
000280 9e 96 47 bc 4b 0d 89 ba f5 81 17 3e 7a 6f 28 bf
       -0.012181906 -0.0010456232 0.14795668 -0.657951
000290 4b a2 26 3e da 1d 15 3e fc 8a 00 bd a1 04 53 3d
       0.16272847 0.14562169 -0.031382546 0.051518086
0002a0 da 9a e4 be 29 49 2e 3d ac 3c 11 3c 51 3f 6d bc
       -0.44649392 0.04255024 0.008864563 -0.014480428
0002b0 1f e7 92 3d 18 37 31 3d 03 c0 33 bd 9c 67 a7 3c
       0.07172989 0.043265432 -0.04388429 0.020435147
0002c0 1c e8 fb 3d 51 a9 2b bc 69 27 ab 3b fd 56 b6 bd
       0.12300131 -0.01047738 0.005223204 -0.089033104
0002d0 ea 67 ec bb df d5 32 3d b9 ef 42 bd e8 18 76 3d
       -0.007214536 0.043660995 -0.0475919 0.060082346
0002e0 10 c8 b8 bd c4 e3 36 3e a3 47 ac 3d 50 bf 85 3d
       -0.09022534 0.17860323 0.08412101 0.065306306
0002f0 a8 89 05 3e f5 b8 5a bd c2 37 fe 3c 00 87 a8 3c
       0.13040793 -0.053399045 0.031032447 0.020572186
000300 9f c6 86 be 72 0c f1 3d a5 59 98 3d 2c 81 2a be
       -0.2632341 0.11769952 0.07438973 -0.16650838
000310 8f fb 11 be 35 ef 01 be e6 21 51 be e2 7e e5 3d
       -0.14256118 -0.12688906 -0.20423087 0.112058416
000320 5b 2b 0f 3f e7 2e 33 bf 91 ef 0e be cd e5 af 3e
       0.5592553 -0.6999344 -0.13958575 0.34355012
000330 b4 d3 14 be df 28 65 3f dd 22 1f 3d d2 7c 20 3e
       -0.14533883 0.8951549 0.038851608 0.15672615
000340 cc e9 3b 3e 33 2b 41 3d 8d e5 a6 bc 94 ab 29 bd
       0.18350905 0.04716034 -0.02037313 -0.041423395
000350 dd 39 0a bd 18 4e 51 3f d8 7e dd be 21 f6 c8 3e
       -0.03374659 0.81759787 -0.43260837 0.3925028
000360 ab 12 b6 3d 35 9d a9 3d 9a a7 3d be c6 1c 56 bd
       0.088902794 0.08281938 -0.18520966 -0.052273534
000370 f8 d1 73 be 41 44 ba 3d c3 d8 8f bf 5b 2a 9e be
       -0.23810565 0.0909505 -1.1238025 -0.3089169
000380 3b 83 5d 3d 89 07 c4 bc 30 24 1c be e9 71 67 be
       0.05408023 -0.023929374 -0.1524818 -0.22602047
000390 c5 ef 33 3e 7c ce aa 3e 88 bd 45 3e c7 24 05 3d
       0.17571934 0.3336066 0.19310582 0.032505777
0003a0 30 b8 7a 3e 92 26 93 3d 01 d7 ad 3e 66 a5 0a be
       0.24484324 0.07185091 0.33953097 -0.13539657
0003b0 12 a9 dc 3c e9 25 98 3c e3 6b e6 bd 41 5d 27 be
       0.026936088 0.018572764 -0.112510465 -0.16344167
0003c0 48 f1 82 3c 15 bc d2 3d 0f fd f0 3d 8c 4a 03 bc
       0.015984192 0.1028978 0.11767017 -0.008013379
0003d0 d6 3f 55 bd 46 0f 0c 3f 1b 4c 1d be ed 1a 83 3e
       -0.05206283 0.54710805 -0.15361063 0.2560648
0003e0 0c 8f 2c 3e 30 12 dc 3d aa ed 09 bf 97 58 53 3d
       0.16851443 0.107456565 -0.5387827 0.051598158
0003f0 32 1d 1d 3e 54 69 06 be ab 8a 29 3e 0e c8 b0 bf
       0.15343168 -0.13126117 0.16556804 -1.3811052

actor_layers.2.bias f4 [16]
000000 c7 e7 88 be 55 c9 48 3e f6 87 83 3d fc f5 45 3d
       -0.26739332 0.19608052 0.06422417 0.048330292
000010 cb 91 10 be 4d fb 4e 3e b4 5f 0f 3b e5 61 92 bc
       -0.14118116 0.20213051 0.0021877112 -0.017868945
000020 f8 7b 9a 3c 86 65 8f 3e 18 a6 b9 3d 8a 12 86 bc
       0.018857941 0.28007144 0.09064883 -0.016366262
000030 66 63 9d 3d 93 3a 35 3e 88 ea f8 3b 36 0b 5d bf
       0.07684974 0.17698126 0.0075963177 -0.8634523

critic_layers.0.weight f4 [50, 20]
000000 05 b1 ad bb 20 a0 b4 3b 0c 3b 95 3e 76 b3 3a bb
       -0.0053006434 0.0055122524 0.29146612 -0.0028488315
000010 7c 9b 42 bb 1a 8b 66 bb 04 a1 08 bd b8 cb b6 3c
       -0.0029694727 -0.0035178126 -0.03335668 0.022313938
000020 dd 97 51 bc 6b df a4 bd 7c 32 a9 3e b7 9e 99 3c
       -0.012792555 -0.08050426 0.3304633 0.018752439
000030 00 be 1a bc af f8 93 3c c7 03 3f 3c 58 2b 67 bc
       -0.009444714 0.018062918 0.011658615 -0.014109455
000040 7d 90 13 bf c0 a7 d0 3a 60 6b 84 3a 97 27 2b bb
       -0.57642347 0.0015919134 0.0010102801 -0.0026116127
000050 1f eb ee 3c e0 c2 bc 3c 4a a3 a4 3b dc 85 cb 3c
       0.029164849 0.023042142 0.0050243484 0.024844103
000060 9c e6 10 3d 40 8f 0b 3c c4 ed 4c bd 0f 99 f9 be
       0.035376176 0.00851804 -0.05003144 -0.48749587
000070 81 99 41 3d 5c 5b a6 bd 2b d4 f4 3c c2 ba aa bc
       0.047265533 -0.08122894 0.029886326 -0.020841006
000080 67 26 2d 3d 68 4a 22 3e 63 f9 04 3e e2 1d 4f bd
       0.04227295 0.15848696 0.12985758 -0.050565608
000090 94 56 84 bd 4f 20 9d 3c 5a bc 0c 3c 03 94 b1 3c
       -0.06461826 0.019180445 0.008589828 0.021677023
0000a0 ed 31 98 3c 13 88 c2 bb 64 91 3b 3d 47 6c 90 bb
       0.018578494 -0.0059366315 0.045792952 -0.004407439
0000b0 85 9f 07 3d cb 1f 43 3d 90 51 50 3e 44 e6 38 bd
       0.033111114 0.047637742 0.20343614 -0.045141473
0000c0 96 fe 3e bd 0b 88 f1 3e 6e 6d e0 bc 45 d6 14 3c
       -0.04662951 0.47174105 -0.02739593 0.009084289
0000d0 74 fc c8 bc bb 64 67 bc d1 b6 10 3c 2b cc 26 bd
       -0.024534442 -0.014123137 0.008832649 -0.040722053
0000e0 e2 ef 28 be 5b 9a c8 bc 37 78 0f 39 96 cb 28 3d
       -0.16497758 -0.024487665 0.00013682326 0.04120978
0000f0 fe 3b bc 3c ea b9 eb bc cb 20 e5 3d f1 87 d7 3d
       0.022977825 -0.028775174 0.111878954 0.10523976
000100 4a b6 2c be 77 e1 a5 3e 5e 06 6d 3e 73 c7 ca 3d
       -0.16866413 0.3239858 0.2314696 0.09901323
000110 04 a3 f3 3d 17 3b 82 3e 78 39 e8 3c ea 52 a1 bb
       0.11896327 0.25435707 0.028347716 -0.004923214
000120 c9 0f 30 3e 94 97 2b 3e 6e 51 6b 3d 52 27 d7 3b
       0.17193522 0.16757041 0.057450704 0.0065659666
000130 52 fa de bd c1 6d 9a 3d ba f9 a7 3d 83 82 36 3d
       -0.108875886 0.07540465 0.082019284 0.04455806
000140 2d 9d 9f be 42 e0 7b bd a4 eb 64 bc f9 75 9a bc
       -0.31174603 -0.061493166 -0.013972197 -0.018855082
000150 22 34 2e bd dd ad ac bb b0 67 f8 bb 37 a3 6d bc
       -0.042530186 -0.0052697496 -0.00758072 -0.0145042455
000160 22 c0 ff bc 0a ee ad bc 07 b7 7c bb fc eb 97 bc
       -0.031219546 -0.02123167 -0.0038561241 -0.018545143
000170 46 66 e9 bc c3 e3 04 bd 8d a6 0f bd 1e 1d cb bc
       -0.02849115 -0.032443773 -0.035070945 -0.024794158
000180 1a 92 2c 3d bd af 86 be db 75 3e bd ba f9 76 bd
       0.04213152 -0.26305953 -0.046499114 -0.06029675
000190 6c 9c 26 bd 57 e7 f0 3b 91 fe 9d bc 0f 96 83 be
       -0.04067652 0.0073517966 -0.019286426 -0.25700423
0001a0 e9 f5 b0 bc c9 6b 43 3c 02 62 36 3c 4f 9f ff bd
       -0.021601634 0.011927553 0.011131765 -0.124815576
0001b0 bb 08 c4 bc 42 5a 90 3b 25 7e 98 bc f4 47 69 be
       -0.023929944 0.004405291 -0.018614838 -0.22781354
0001c0 98 df 17 be 01 e7 ce bc 5d 1b 73 bd 8e b8 1b be
       -0.14831388 -0.025256636 -0.059352268 -0.15207121
0001d0 cf dc 69 be 63 e5 a1 bc 4c 4d 85 bb a9 f2 e5 3b
       -0.22838138 -0.0197627 -0.0040680524 0.0070174527
0001e0 83 67 2c bc 21 5a 8c bc d0 94 06 3d 04 14 c9 bb
       -0.010522726 -0.01713282 0.032856762 -0.0061364193
0001f0 9b 32 fe 3b fc 6f d2 3c 28 06 e4 bc 90 f7 0a bc
       0.0077574975 0.025688164 -0.027834967 -0.008481875
000200 83 0e 12 3d 82 5a 7d 3c 97 bb 0b bb c0 c6 26 3c
       0.03565837 0.015463473 -0.002132153 0.010179222
000210 39 7b 75 3c ef 9a ae bb 9e a3 9a ba 10 2a 3c bc
       0.014982992 -0.005328528 -0.0011798029 -0.011484638
000220 99 57 f4 bc 42 f0 02 be 0d a8 11 be fd 23 6e 3f
       -0.029826926 -0.12786964 -0.14224263 0.93023664
000230 b8 7d 1a be e4 b2 ff bd 56 c8 3b bd 53 33 34 bd
       -0.1508702 -0.124852926 -0.045845352 -0.04399426
000240 9e ba c7 bd 0b 0f 51 bd a7 1f 43 bd d5 33 43 bb
       -0.09752391 -0.051039737 -0.047637608 -0.0029785533
000250 be 80 72 bd d7 1b 09 be d8 be 8c bd 85 ac f0 3d
       -0.05920481 -0.13389526 -0.06872338 0.117516555
000260 4d db 85 bd 67 52 ee bd 02 0e 74 bd 53 26 85 be
       -0.06535969 -0.11636811 -0.05958367 -0.26005802
000270 65 73 c3 bd 55 ec 13 bd 60 ee d5 3d 5f fb e2 bc
       -0.09543494 -0.036114056 0.10445857 -0.027707754
000280 90 ea 08 bb 84 47 bb 3c f9 95 ed 3c 9f 69 8d 3d
       -0.0020891763 0.02286125 0.029002177 0.06904911
000290 9b 00 b5 3c cc df fb 3b 72 36 8e bc 8a 19 88 bd
       0.022095015 0.007686591 -0.017359946 -0.06645496
0002a0 8e 0e 0b 3d ac 78 5f bc d5 57 06 3d b3 98 ef bd
       0.033949427 -0.01363961 0.032798607 -0.11699047
0002b0 02 b5 62 3d c0 a2 30 be 09 c5 ff be f4 49 2d 3c
       0.055348404 -0.17249584 -0.49955013 0.010576714
0002c0 1e a9 d7 bd 6b ff c3 b8 fc 0e 58 3c fe 1f e6 3c
       -0.105303034 -9.3459e-05 0.013187166 0.028091427
0002d0 c8 b0 b6 3c fe 16 36 be be bc 63 be ae c9 92 3e
       0.022301093 -0.17782208 -0.22239968 0.28669494
0002e0 25 79 a6 bb 9e 6d e9 3b 81 5a 0d 3d 18 77 e7 3b
       -0.0050803595 0.007123663 0.03451014 0.0070637576
0002f0 85 e5 f3 3c 4c b3 3d bd 3c a0 28 3d 3b 7a 3a bd
       0.02977253 -0.04631357 0.041168436 -0.045526724
000300 5e 74 4b be 98 6c f5 3a 1f 4e 3d 3d 84 34 5e 3c
       -0.1986861 0.001872438 0.04621708 0.013562325
000310 b6 18 77 bd 4d d1 13 bb 01 76 ba 3b 69 2e 5e 3c
       -0.0603263 -0.0022555173 0.0056903367 0.01356087
000320 a5 90 7b 3d a1 b2 ba 3d 2e 7a 71 3c 96 76 17 bd
       0.06141724 0.09116102 0.014738603 -0.036978327
000330 01 43 b6 3c 55 53 0c bd 8f e9 1c be 46 6c 02 bd
       0.022248747 -0.03425916 -0.1532347 -0.03184154
000340 7f e8 ed bd 65 fc 19 3c b6 54 95 bd ea 9b 50 3d
       -0.11616611 0.009398554 -0.07291548 0.05092994
000350 02 eb 9b be 25 90 c8 bc 0b 78 61 3d ec 83 44 3d
       -0.30452734 -0.024482796 0.055046123 0.047977373
000360 37 21 4e be 79 96 df 3c f7 ea 40 bb e4 be f2 bc
       -0.20129858 0.02729343 -0.0029436925 -0.02963204
000370 5e a2 68 3e 04 d4 5f 3c 11 ae 12 bc cc cb 24 bd
       0.22718188 0.013661388 -0.0089526335 -0.04023342
000380 dd 93 e1 3c f3 52 f8 bb 3e 1f da 3c 84 1f 0d 3b
       0.027536327 -0.0075782477 0.026626226 0.0021533677
000390 83 c2 2f 3c bb aa b1 3b 24 7a 39 3c 9f 54 d0 3c
       0.010727528 0.005421964 0.0113206245 0.025430975
0003a0 d4 fa 29 be 37 56 8e bc 92 0a 2f bd 45 f3 33 3a
       -0.1659959 -0.017375095 -0.04273469 0.0006864558
0003b0 e8 d7 81 3e 5f 33 8a be 7a de 19 bd 20 f3 49 3b
       0.25360036 -0.26992318 -0.037565686 0.003081508
0003c0 93 d0 08 3c 1d af 76 39 c2 d7 26 3e b1 9d 02 3c
       0.008350509 0.00023525623 0.16293243 0.007972167
0003d0 fd df 55 3c 70 27 25 3b 9b 9a fb 3d 14 9f ef bb
       0.013053891 0.0025200509 0.12285348 -0.0073126648
0003e0 9a fe 9f 3e 2d f2 6c 3c f6 15 be 3e 23 ce 20 3e
       0.31248933 0.014462036 0.3712613 0.15703635
0003f0 d6 f6 4a 3c 3c 39 d8 3b 10 8d be 3d bb 5a aa bc
       0.012387952 0.0065986197 0.09304249 -0.020795217

critic_layers.0.bias f4 [50]
000000 2b d2 10 3f 82 72 0a 3f 5d 67 87 be 7f d3 42 3f
       0.5657069 0.54080975 -0.26446047 0.7610397
000010 49 4e a9 3d 8d 37 b9 3e 48 24 1b bf 19 94 b8 3e
       0.08266885 0.36175194 -0.60602236 0.3605049
000020 a0 df 10 3f 0c a5 5b be b2 44 17 bd b9 33 66 3d
       0.56591225 -0.21449679 -0.036930747 0.05620167
000030 5d 6b 03 3e 59 88 b0 3e 84 a8 2a 3f 9b 4d 1e bf
       0.12833925 0.34479025 0.66663384 -0.61837167
000040 ab 33 99 3e a9 34 a3 3e d8 7f 70 be 71 13 fe 3e
       0.29922232 0.31876114 -0.23486269 0.49624208
000050 fa 18 e4 3c 2c ae ba bd 5d a5 44 3e cd 2f f8 3d
       0.027843941 -0.09115252 0.19203706 0.12118492
000060 dd 80 3f be 7d a0 0f 3e 12 0c ed 3d 26 04 2b 3e
       -0.18701501 0.14026065 0.11574568 0.16700801
000070 79 7d 95 bf 09 4f af bd a7 cc 04 3f ee 0a d1 bf
       -1.1678916 -0.08559997 0.51874775 -1.633146
000080 bb 53 8a 3f 8f 55 d3 3e 73 2b 86 3d a6 dc ac 3e
       1.0806803 0.41276214 0.06551256 0.3376209
000090 f5 11 89 be 5d ce 8c be 60 04 df be ac 87 32 3f
       -0.26771513 -0.27501193 -0.43558025 0.6973827
0000a0 b2 ab 62 bf c2 6f 24 3c 32 d5 a9 be 31 12 37 3e
       -0.88543236 0.010036411 -0.33170468 0.17878033
0000b0 04 02 8f 3e 4a 0a 96 3e 05 c1 b1 be b7 1d b0 3e
       0.27931225 0.29304725 -0.34717575 0.3439767
0000c0 1b 76 91 3d b4 45 45 3e
       0.07102605 0.19264871

critic_layers.1.weight f4 [50, 50]
000000 0e 25 b6 bd c8 ca e6 3d 22 54 1c bd d8 25 09 be
       -0.08893786 0.11269146 -0.038166173 -0.13393342
000010 19 3b 19 3d 3e 49 89 bd e5 97 38 bc a4 ff e2 3c
       0.037409876 -0.06703423 -0.011266683 0.02770979
000020 9f 2d 89 bd 1e 9d f2 bc f2 56 44 bd 27 1c 3a 3e
       -0.06698155 -0.029615935 -0.04793448 0.18174802
000030 71 e4 22 3d 82 d5 18 be 28 9c a4 be 45 3f 22 3e
       0.03976864 -0.14925197 -0.32150388 0.15844448
000040 c0 f7 4e 3e a8 ee f7 3d d6 4d b4 bd e6 4e 90 bd
       0.20211697 0.12106067 -0.088039085 -0.07046299
000050 2e 39 80 bd 4e 27 1c 3d d8 30 8c 3d 14 44 7b 3e
       -0.06260906 0.03812342 0.06845254 0.24537688
000060 3c 40 1b bd 4d 73 f3 3d f1 18 aa bd 0c 96 b7 bd
       -0.037903056 0.11887226 -0.083055384 -0.08964166
000070 32 04 cd 3d 85 6e 19 be f9 11 35 bc fc 9f da 3d
       0.10010566 -0.14983566 -0.011051648 0.10675046
000080 e8 a6 84 3d ba af 60 be fd f2 da 3d 4e cd 24 be
       0.06477147 -0.21942034 0.106908776 -0.16093943
000090 c2 c0 f7 3c b9 07 68 bd e0 8a d1 bd 1f 43 8d bd
       0.030243281 -0.05664799 -0.102315664 -0.06897568
0000a0 e4 74 4a bc b0 8c e7 be b7 dd 2f be 46 1b fd 3d
       -0.01235697 -0.45224524 -0.17174421 0.123587176
0000b0 0b 11 97 3d 5a 89 4d 3b 6f a2 f4 bd e8 f6 99 bd
       0.073762976 0.0031362385 -0.11945044 -0.07517797
0000c0 43 02 d6 3d 49 96 64 bd 90 87 a8 3e 73 76 0c 3e
       0.1044965 -0.055807386 0.32915926 0.1371706
0000d0 c2 e2 7f 3e 01 58 d5 bd b2 7e ca bd 7c 3c 93 3d
       0.24988845 -0.10417176 -0.098874465 0.07189271
0000e0 1e c2 fb bd 76 ac e6 3d 17 f7 87 3d 00 45 f0 3d
       -0.12292884 0.11263363 0.066389255 0.11731911
0000f0 2c 52 9b bc 8c 74 4c be 5a 48 a6 bc 0c 2a 49 3e
       -0.018960081 -0.19966334 -0.020298172 0.19644946
000100 a6 fb cd 3d bb 28 ab 3c d8 25 b9 3d 8d 7d 80 bd
       0.10057764 0.020893445 0.09040421 -0.06273947
000110 f0 12 c0 3c 93 87 12 3d 2c aa eb bc c6 a2 33 bd
       0.02344653 0.035773825 -0.028767668 -0.043856405
000120 8a 97 a6 3c 62 14 00 bf 82 ab b8 bd a9 1b 98 3d
       0.020335931 -0.500311 -0.090170875 0.07427151
000130 38 11 be 3c b0 7a 7d 3d 9c 2f ab bd 1b 3e 08 bf
       0.02320157 0.061884582 -0.0835869 -0.53219765
000140 8f 40 6b 3d bb c1 18 be 65 84 7c 3e 9e 33 fa 3b
       0.057434615 -0.14917652 0.2465988 0.007635548
000150 56 2c 84 3d 0f 96 0f 3e d3 5b e9 3d f7 e1 3e bd
       0.06453769 0.14022087 0.11394467 -0.046602216
000160 18 f5 48 3d aa 81 a1 3c eb 86 7e be ea 9a 0c bd
       0.049061865 0.019715149 -0.24856155 -0.034327425
000170 cc ba e6 bd 06 8a 2e 3d f5 f4 3a 3e e1 6b b7 bd
       -0.112660974 0.0426121 0.18257506 -0.08956123
000180 96 2f 77 bd 81 79 7e 3d 06 a7 ce 3c f4 4b 34 3e
       -0.060348116 0.062127594 0.025226127 0.17607099
000190 cc 44 d8 bd 8d c7 f5 3b 9b e1 26 3c a0 b5 a2 bd
       -0.10559997 0.007500595 0.0101856245 -0.079447985
0001a0 8f 61 c9 bd 0f 58 89 bd e8 a6 43 be 31 87 2d be
       -0.09833061 -0.06706249 -0.19106638 -0.16946103
0001b0 08 1d d3 bd 2e fb 92 bd 60 9a 3f bb 08 ea c1 bd
       -0.10308272 -0.07176815 -0.0029236302 -0.09468466
0001c0 43 f6 3b bd 75 0c 6b bd 14 a0 80 3d a0 8d dd 3d
       -0.04588915 -0.057384927 0.062805325 0.108180285
0001d0 51 46 86 bd b0 d9 91 bc 09 1f 24 bd 3f 7c d1 3c
       -0.065563805 -0.017803997 -0.04006866 0.02557194
0001e0 02 60 4d be 22 1b bd 3c 67 f7 98 bc 8c 04 95 bd
       -0.20056155 0.023084227 -0.018672658 -0.07276258
0001f0 f3 f1 74 bd 5c 02 15 3e 61 95 d1 3c 72 06 8c 3c
       -0.059801053 0.14551681 0.025583925 0.017092917
000200 06 d6 1e be a7 47 9e bd 03 4e 68 3c 22 ec d6 3e
       -0.15511331 -0.0772851 0.014178756 0.4197703
000210 68 c6 d5 3d 5a 56 05 bd 2c 0f 50 bd 1a 20 b9 bd
       0.104382336 -0.032553054 -0.05079572 -0.09039326
000220 8b 72 68 be 85 9b 63 bd 07 9c 95 3c 99 dc 0c be
       -0.22699945 -0.055568237 0.018262876 -0.13756026
000230 4c 30 d2 3c eb 63 00 bb 69 97 35 bc 14 03 50 bd
       0.025657795 -0.0019590806 -0.011083462 -0.050784186
000240 cd ac c8 3b dd b2 0e be 30 06 b9 3c fb ee bd bd
       0.006124115 -0.13935418 0.022585958 -0.092740975
000250 80 48 12 be 96 e0 4b bd 76 1c 95 3c 80 17 8d 3c
       -0.14285469 -0.04977473 0.018202048 0.01722312
000260 d9 d4 44 bd 94 b0 43 be c2 0c 04 bd 03 9c a3 bd
       -0.04805455 -0.19110328 -0.03223873 -0.07988741
000270 6d e7 b8 bd 45 c3 96 3d 96 b2 db bd 8b d8 96 3d
       -0.09028516 0.073614635 -0.10727422 0.07365521
000280 c2 b6 93 bc 7c 17 ff 3a b0 38 09 be 69 ca ae bd
       -0.018031482 0.0019461955 -0.13400531 -0.085347004
000290 5a c9 b3 be ee 75 ad be 40 1c 36 3e 9d 1f 35 3e
       -0.35114557 -0.33879036 0.17784214 0.17687841
0002a0 20 dc 90 bd c9 25 e3 3c 1a 81 cc 3d 12 a9 c5 3e
       -0.070732355 0.027727978 0.09985562 0.38605553
0002b0 56 ec 2f bd 38 02 a1 be 2d c7 5d be 8c a8 1f be
       -0.042949997 -0.31447005 -0.21658011 -0.1559164
0002c0 75 16 47 3d c5 4d 15 be 91 4f 71 bd 6c 05 50 be
       0.0486054 -0.14580448 -0.05891377 -0.20314568
0002d0 3f 6b 35 bd 3d 5f b4 3d 99 bf 4e 3e 04 a5 4b bd
       -0.04429173 0.08807228 0.20190276 -0.049717918
0002e0 5e 1c ac bd b4 85 ba 3b 91 eb 86 3e 7f 10 be bd
       -0.08403848 0.005692208 0.26351598 -0.0928049
0002f0 a2 4f f2 bd 1e 65 d8 3d ee e0 45 3d a6 d9 25 be
       -0.11831595 0.105661616 0.048310213 -0.16196308
000300 97 97 9d bd 13 c8 0c be f7 0f c6 3d 77 19 0c 3d
       -0.07694929 -0.13748197 0.09671014 0.034203973
000310 66 35 26 bd c6 b6 e2 3c 2e ef 15 be fa 93 33 3e
       -0.04057827 0.027675044 -0.14642021 0.17536917
000320 86 92 38 bd a1 38 be bc 13 96 19 3d 58 f8 2e be
       -0.04506161 -0.023220362 0.037496638 -0.17086923
000330 92 8a 22 be 94 70 23 be 93 d3 83 bf 61 dd 44 3d
       -0.15873173 -0.15960914 -1.0298942 0.048062686
000340 27 d2 a9 bc 60 4c 14 bf c6 ef ad 3d 19 09 ab 3d
       -0.020730091 -0.5792904 0.08492999 0.083513446
000350 47 4a 78 bd e7 7a c3 3d 14 cb ec 3d bb 0b f8 bc
       -0.06061771 0.09544926 0.115621716 -0.030279031
000360 fb 96 86 3c 06 07 0d bd d5 03 90 3e 54 a9 32 bd
       0.016429415 -0.034430526 0.28127924 -0.043618515
000370 a8 23 83 bd 8c 6d 78 bd c5 7b 0e 3e b5 2b 51 3e
       -0.06403285 -0.060651347 0.13914402 0.20426829
000380 bd b7 7d bd 66 78 b7 3d 1f 3f 8f bd 91 ed 27 bd
       -0.061942805 0.08958511 -0.06994461 -0.040998045
000390 19 b5 7c bd 3a 1e 30 be 83 46 cc bd f6 6d 8a bd
       -0.061696146 -0.1719903 -0.099743865 -0.06759255
0003a0 33 9d c3 3d 9d 93 5e bd e5 eb 97 3d bf 63 b0 3d
       0.09551468 -0.054339994 0.0741804 0.08612775
0003b0 c5 ae b9 be 3f c8 02 3e a8 5b bc bd ed d5 11 bd
       -0.3626615 0.127717 -0.091971695 -0.035604406
0003c0 79 ac 27 bd 5e 91 87 be 19 26 c0 3d da d3 2d bd
       -0.040935967 -0.26478094 0.093822666 -0.042438366
0003d0 a7 80 c6 bc cf f2 93 3d 99 c3 d3 3d c9 19 a2 3d
       -0.024231268 0.072240464 0.10340042 0.079150744
0003e0 00 89 e1 3a 97 a0 05 3c 59 96 a6 bd 14 3c 14 3d
       0.0017206967 0.008155963 -0.08134145 0.036190107
0003f0 a3 66 6c 3c 33 b6 6e 3d 1d 32 cf bd 6e 22 ba bd
       0.014428767 0.058279227 -0.1011698 -0.09088598

critic_layers.1.bias f4 [50]
000000 48 a3 a9 3e 2a 79 e6 3d 00 70 0f bf 98 cb 8e 3e
       0.33132386 0.11253579 -0.56030273 0.27889705
000010 45 df 62 bd 8b e1 80 3e f0 d9 82 be e8 b5 1f 3e
       -0.055388708 0.25172076 -0.25556898 0.15596735
000020 37 f4 88 3e 61 08 f9 3e 4b 67 f4 bd 71 4e 09 3e
       0.2674882 0.48639205 -0.11933764 0.1340883
000030 1c 6c 8c 3e 42 79 df 3b 24 89 42 3e ab ef 9c bd
       0.2742623 0.006819875 0.18997627 -0.076629005
000040 30 2a a3 3d 30 eb 01 3d 77 11 74 3e 36 ad 0e 3d
       0.07967031 0.031718433 0.23834787 0.034833156
000050 f9 e1 23 be 2e 2d 29 be 97 ac d9 be 97 44 80 3e
       -0.1600417 -0.16521141 -0.42514488 0.2505233
000060 0a 6d 37 3e 3d 8e 2a 3e 3b 21 f3 bd 56 f9 8f 3c
       0.17912689 0.16655822 -0.118715726 0.017574947
000070 02 8c 29 3e 7f cf 65 be 59 4c 43 be 93 0b 1f 3e
       0.16557315 -0.22442435 -0.19072093 0.15531759
000080 b2 22 9c 3e a3 f3 86 3e 61 6c 33 3e f3 c2 1d 3b
       0.3049522 0.26357755 0.17521812 0.0024072498
000090 70 90 99 3e 93 9a a7 bb 41 43 96 be 59 ad 2e 3d
       0.2999301 -0.005114862 -0.29348186 0.042645786
0000a0 3a 29 8b bc 92 ba fd 3d e8 55 0f bd 50 ef 8f bd
       -0.016987432 0.12389101 -0.034994036 -0.07028067
0000b0 24 d5 9d bd 8b 9f 3d be cf b9 75 3e 22 b5 2b 3e
       -0.07706669 -0.18517892 0.23996662 0.16768315
0000c0 15 47 5d 3e a2 51 77 be
       0.21609147 -0.24152234

critic_layers.2.weight f4 [1, 50]
000000 c2 e0 be 3c d6 60 72 bd 88 cc 2c be c2 eb 12 3d
       0.023300532 -0.05917438 -0.16874897 0.035869367
000010 62 cf ab bd ce 45 3e 3d cd 0e 9a bc 4c 5d f6 bd
       -0.083891645 0.04645329 -0.018805886 -0.12029514
000020 ad c9 4c 3d e2 93 4b 3d 46 14 b0 3c aa 80 88 3d
       0.04999702 0.04970158 0.021494042 0.06665166
000030 f9 56 25 3c 90 f0 80 bd 9d 78 2b 3d 1b 02 38 3d
       0.010091537 -0.06295884 0.041863073 0.044923883
000040 be 80 85 3d 03 27 e3 bd 8b 37 9f 3c fc 7b 95 bd
       0.06518696 -0.11091425 0.019435665 -0.07299039
000050 99 25 af bd 6d 5a 92 bd a7 eb 01 be fd 0d ca 3c
       -0.08552093 -0.071461536 -0.1268755 0.024664873
000060 96 0a 6d 3d 1e 3e 00 3d 77 f6 e2 bd 16 35 2a 3d
       0.057871424 0.03130924 -0.11082166 0.041554533
000070 8c 44 e8 3c cd 43 0d be 8a 53 70 3d 56 78 d8 3c
       0.028352998 -0.13795395 0.05867342 0.026424568
000080 da 20 a1 3d e7 3d 06 3d ca 40 21 3d fb 06 b7 3c
       0.07867594 0.03277388 0.03936843 0.022342196
000090 f5 67 23 3d 82 9b e8 3d e3 53 33 3d 75 c7 f6 3c
       0.039894063 0.11357786 0.043781172 0.030124405
0000a0 cf 36 b7 bc 02 63 c9 3d ca 00 fa 3c 6d b9 b0 3d
       -0.022365002 0.09833337 0.030517954 0.08629117
0000b0 04 38 e7 bc 8e c7 0e bd 8a ed ab 3d ab b2 15 be
       -0.028224953 -0.03485828 0.08394916 -0.14618938
0000c0 80 ad f2 3c e6 94 23 be
       0.029623747 -0.15974769
