pre_trained/example_model.pth (torch_old, 34326 bytes, 11 tensors)

actor_layers.0.weight f4 [50, 20]
-0.09875606 -0.09528961 -0.13154061 -0.14072448 0.021836098 -0.1296175 0.13325681 -0.044508528
-0.12852018 -0.094309755 -0.010716248 0.12589571 -0.19498837 -0.12913021 -0.057754777 0.033007637
0.665506 -0.05081916 -0.081784844 -0.019664785 -0.18947251 -0.14921856 0.08101317 0.13158004
-0.08262035 -0.12824221 -0.05312999 -0.08242011 -0.10979901 -0.07902264 0.03170118 -0.09482075
0.10266494 -0.2057517 -0.27245957 0.033929206 -0.5914403 0.20161825 -0.195242 -0.05288428
-0.13219701 0.2000113 -0.11499387 0.09410049 -0.1606201 0.042299464 -0.05097416 0.087242834
-0.12214535 -0.09327445 0.0035512664 -0.10882758 0.0064687068 0.099354 0.0207821 0.07500277
-0.13592975 0.055482145 0.09686982 -0.0002099536 -0.09821172 0.021893227 0.13019468 -0.05443373
0.09543888 0.03661379 -0.10055714 -0.13458371 -0.12560187 -0.024807122 0.12635668 0.15090801
0.05293483 -0.1287614 -0.08554603 -0.047626015 0.8090211 -0.018978024 0.11994219 -0.086215325
-0.12399554 0.008070743 0.092635676 -0.09869775 -0.027160399 0.0093215685 -0.104946256 -0.032290276
0.058969922 -0.0637954 -0.0052324985 0.09927789 -0.11865133 0.01906951 -0.04701356 -0.11841211
0.761948 -0.05315726 -0.11468496 -0.08509031 0.12235184 0.09716813 0.058452364 -0.013723179
0.069345795 -0.060034424 0.09029118 -0.033840902 0.119688556 -0.070084535 -0.037995737 -0.0153603535
-0.15299684 0.019730866 0.023969274 -0.007852156 -0.31750208 -0.042938303 -0.38496023 -0.060003046
-0.06318223 0.062532775 0.07464613 0.03914841 0.037815258 -0.013127085 -0.051050935 0.16800071
-0.0651922 -0.005052869 0.10711841 0.06612366 -0.10955311 0.12273852 -0.1252944 0.11376227
0.40120947 0.10704537 -0.017339902 0.052672334 -0.062125202 0.094821796 0.083385594 -0.1757218
-0.027737398 0.049402475 -0.13052996 0.122427106 -0.21640909 -0.13090071 -0.13028836 -0.007989305
0.18972549 -0.24234286 0.15274236 0.05133437 -0.32841033 0.030506365 0.028505795 -0.16757119
0.012661267 0.039751917 -0.0072100186 -0.25972784 -0.039003257 0.09027725 -0.09773612 -0.14411822
-0.21793763 0.111981004 -0.13096976 -0.09782521 -0.25805396 0.10375182 -0.008557005 0.13098489
-0.3745815 -0.04256249 0.014531032 0.15890588 0.10216464 0.0073533785 0.05284218 -0.12284009
-0.08709451 -0.049811695 0.17830953 -0.035581246 0.0827572 -0.06336682 0.1525238 0.07923668
-0.032019377 -0.0047403667 0.023367435 -0.067546725 0.51904315 -0.079916246 -0.08151216 0.07809773
0.00091092393 0.07798813 -0.0564966 0.038670547 -0.1235359 0.025679307 -0.17277749 -0.14743783
0.018776275 -0.19276777 -0.07715345 0.19368987 -0.14814429 0.17579564 0.011754396 0.017295476
-0.27546927 0.23486224 0.046379194 -0.020819087 0.15038097 0.1443364 0.005805287 0.11348127
-0.20697512 -0.15112084 0.07362082 -0.13674231 -0.10749448 0.076577485 0.09201276 0.14486277
-0.1442296 -0.17805506 0.14103514 0.10625375 -0.17634155 -0.21804209 -0.010280262 0.15788536
-0.21200517 -0.08754653 0.07687252 0.08433904 0.14084955 0.051170416 0.1510327 -0.034569528
0.020119302 -0.16853748 0.09052032 -0.048480585 -0.1403806 0.041193265 -0.10861687 -0.042906024
00000000: 9e40 cabd 3327 c3bd 95b2 06be 141a 10be
00000010: 9ee1 b23c 73ba 04be 7974 083e 934e 36bd
00000020: cb9a 03be 7925 c1bd 3493 2fbc ceea 003e
00000030: 08ab 47be b63a 04be 4690 6cbd 0433 073d
00000040: 9a5e 2a3f c027 50bd d07e a7bd 0b18 a1bc
00000050: 1505 42be c0cc 18be 3cea a53d ebbc 063e
00000060: dc34 a9bd ed51 03be d59e 59bd e0cb a8bd
00000070: 4ede e0bd 9fd6 a1bd 19d9 013d 6231 c2bd
00000080: ff41 d23d 93b0 52be d27f 8bbe 5af9 0a3d
00000090: a268 17bf 0475 4e3e 85ed 47be 309d 58bd
000000a0: a75e 07be c3cf 4c3e e881 ebbd c2b7 c03d
000000b0: 9879 24be 3442 2d3d 48ca 50bd 5fac b23d
000000c0: 5727 fabd ad06 bfbd 5dbc 683b ffe0 debd
000000d0: 72f7 d33b 1c7a cb3d 393f aa3c 0d9b 993d
000000e0: 2b31 0bbe 3f41 633d af63 c63d fe26 5cb9
000000f0: 3a23 c9bd 6d59 b33c c151 053e e7f5 5ebd
00000100: 7675 c33d 57f8 153d e7f0 cdbd 50d0 09be
00000110: c79d 00be 4e38 cbbc a563 013e a187 1a3e
00000120: 31d2 583d 07da 03be c232 afbd 7f13 43bd
00000130: 021c 4f3f cd77 9bbc 40a4 f53d a991 b0bd
00000140: 60f1 fdbd 263b 043c c6b7 bd3d 0c22 cabd
00000150: 7c7f debc 7eb9 183c 10ee d6bd cf42 04bd
00000160: 728a 713d 2aa7 82bd 6175 abbb 3552 cb3d
00000170: 78ff f2bd a937 9c3c 4a91 40bd 0c82 f2bd
00000180: 060f 433f 6dbb 59bd f3df eabd d443 aebd
00000190: 9a93 fa3d 1600 c73d bf6b 6f3d 2fd7 60bc
000001a0: 2b05 8e3d a8e6 75bd 95ea b83d c29c 0abd
000001b0: 461f f53d 7b88 8fbd 6ba1 1bbd fea9 7bbc
000001c0: 34ab 1cbe a0a2 a13c 365b c43c 54a6 00bc
000001d0: a28f a2be 13e0 2fbd 8219 c5be c1c5 75bd
000001e0: af65 81bd 2f11 803d 12e0 983d 155a 203d
000001f0: 2ce4 1a3d fc12 57bc c91a 51bd 6108 2c3e
00000200: 7d83 85bd 8a92 a5bb e660 db3d d76b 873d
00000210: 625d e0bd 555e fb3d 2d4d 00be 31fc e83d
00000220: 546b cd3e 9a3a db3d 690c 8ebc f2be 573d
00000230: ff76 7ebd ee31 c23d 11c6 aa3d 6af0 33be
00000240: 8a39 e3bc 405a 4a3d a5a9 05be 10bb fa3d
00000250: 589a 5dbe d60a 06be 506a 05be 93e5 02bc
00000260: 6647 423e ba28 78be 7e68 1c3e fd43 523d
00000270: 6625 a8be 7ce8 f93c fc84 e93c c897 2bbe
00000280: 3471 4f3c e8d2 223d 0542 ecbb 0cfb 84be
00000290: e1c1 1fbd 47e3 b83d e029 c8bd ba93 13be
000002a0: 0b2b 5fbe 4c56 e53d f01c 06be 9558 c8bd
000002b0: a61f 84be d67b d43d ae32 0cbc e720 063e
000002c0: 25c9 bfbe 0156 2ebd 9113 6e3c 39b8 223e
000002d0: b23b d13d 9cf4 f03b 0b71 583d 9693 fbbd
000002e0: 9b5e b2bd 5907 4cbd c696 363e a4bd 11bd
000002f0: 9b7c a93d 77c6 81bd 332f 1c3e d746 a23d
00000300: c026 03bd 1455 9bbb 106d bf3c f055 8abd
00000310: 03e0 043f 21ab a3bd d9ef a6bd b4f1 9f3d
00000320: 12cb 6e3a 3eb8 9f3d fb68 67bd 0265 1e3d
00000330: 6400 fdbd 695d d23c 95ec 30be f1f9 16be
00000340: b4d0 993c ea64 45be a102 9ebd a356 463e
00000350: 23b3 17be c603 343e 8395 403c 3eaf 8d3c
00000360: 4f0a 8dbe ba7f 703e 1cf8 3d3d ca8c aabc
00000370: 78fd 193e eccc 133e 473a be3b de68 e83d
00000380: 49f1 53be 6cbf 1abe 83c6 963d 2d06 0cbe
00000390: 1126 dcbd a8d4 9c3d 3071 bc3d e856 143e
000003a0: edb0 13be 1154 36be 846b 103e 919b d93d
000003b0: e192 34be 6d46 5fbe 8b6e 28bc b3ac 213e
000003c0: e217 59be 984b b3bd 576f 9d3d f2b9 ac3d
000003d0: dd3a 103e 1298 513d 51a8 1a3e c798 0dbd
000003e0: 3cd1 a43c 1795 2cbe b862 b93d 9493 46bd
000003f0: efbf 0fbe 45ba 283d 8672 debd 3abe 2fbd

actor_layers.0.bias f4 [50]
0.11159256 0.14491169 0.14303003 -0.2954008 -0.023168953 0.3962118 0.23444667 0.13593599
0.0044811317 0.1723722 0.3255435 -0.12059572 -0.0054780636 -0.11855823 -0.11568214 -0.0876176
0.09066931 0.5036255 -0.16558246 0.062483188 0.2309466 0.27421606 -0.04021144 0.15315661
-0.0077461726 -0.27000156 0.3585667 0.09181618 0.26321122 0.27590954 0.15078203 -0.19484688
0.3628646 -0.06882387 0.27401537 0.20452042 -0.3034828 0.20427676 0.4269441 0.11446284
0.12363123 0.3230919 0.073911875 0.05882567 -0.059862997 0.2628167 -0.07912011 0.28109762
-0.15795878 0.24169222
00000000: a48a e43d bb63 143e 7776 123e c63e 97be
00000010: d1cc bdbc 46dc ca3e ca12 703e ce32 0b3e
00000020: 75d6 923b 5782 303e a3ad a63e e4fa f6bd
00000030: 5481 b3bb a8ce f2bd c2ea ecbd db70 b3bd
00000040: d5b0 b93d 9aed 003f 738e 29be 5fee 7f3d
00000050: 447d 6c3e 0c66 8c3e c0b4 24bd 16d5 1c3e
00000060: 9bd3 fdbb a53d 8abe 0e96 b73e 1f0a bc3d
00000070: 9fc3 863e 0444 8d3e 9b66 1a3e f185 47be
00000080: 64c9 b93e 87f3 8cbd be4b 8c3e cd6d 513e
00000090: 1962 9bbe ed2d 513e 6b98 da3e 7e6b ea3d
000000a0: 5f32 fd3d 4d6c a53e 1c5f 973d 30f3 703d
000000b0: e732 75bd e98f 863e b909 a2bd 07ec 8f3e
000000c0: f2bf 21be 2a7e 773e

actor_layers.1.weight f4 [50, 50]
0.19170511 -0.14678043 -0.13947242 0.13142663 0.033189394 -0.23988432 -0.16287385 -0.08451049
-0.23689644 0.040301792 -0.013187833 -0.12471813 0.08010098 0.0062436825 0.05964124 0.099477194
-0.24486506 -0.20641015 0.20860535 -0.055421997 -0.11401853 0.015353434 -0.06639494 0.008947473
-0.034901604 -0.020439643 -0.09937043 -0.07274856 -0.14530148 -0.17219806 0.11800109 0.0759349
-0.21047817 -0.03380867 -0.05126318 0.014787295 0.13169432 -0.13768476 -0.09916686 -0.062319573
-0.10504136 -0.18554343 -0.11502103 0.19332667 0.09416045 -0.049478017 -0.06625882 -0.07835594
0.05310001 -0.04880934 -0.061123207 -0.10574638 -0.04975168 0.1693909 0.14432678 -0.06552314
0.06883691 0.003862819 -0.022692807 0.12825745 -0.067298554 -0.010535717 0.073819816 -0.06685643
0.124686435 0.16933408 -0.121872984 -0.19213347 0.17830059 -0.049697347 -0.08832385 -0.0908932
0.0379646 0.007898531 0.022001408 0.14859101 -0.008877309 -0.07795696 -0.12699287 -0.12152177
0.15595745 0.1028995 -0.16537315 0.059711784 -0.16923961 0.0666054 0.00593651 -0.08329881
-0.14832029 -0.12596823 -0.07167328 -0.0023926618 -0.03129967 0.17259991 0.20046474 -0.03035774
-0.0771297 0.009223811 -0.017435908 0.049267214 -0.034840345 -0.113313295 -0.15212026 -0.02969322
-0.14387195 0.10816717 0.1517726 0.05342716 0.022614593 -0.11633117 -0.08085779 -0.1509882
0.04128879 0.010495175 -0.027077084 0.06513423 0.056446724 -0.078573346 -0.10215656 -0.07715231
-0.08329799 -0.08773428 -0.053401828 0.019879324 -0.092865884 0.05643243 -0.061814055 0.099282734
-0.10677444 0.24673174 -0.107507624 -0.037247695 -0.038109746 -0.065074824 -0.0744153 0.003917388
0.04133142 0.15896827 -0.020881247 0.12898196 -0.02691585 0.099935725 0.031515133 -0.11062109
0.014802379 0.07105724 -0.017973743 -0.0766641 -0.06730284 0.15097682 0.055040393 -0.12258302
-0.094818324 0.068633065 -0.05432459 -0.0037495375 0.13347337 0.032901183 -0.04074652 -0.053541612
0.007103738 -0.04729951 0.09698257 -0.0057409666 0.12134035 -0.03348674 -0.20035107 -0.047689095
0.044434227 -0.12633313 -0.04478703 0.041399732 -0.012694341 -0.02966488 -0.07702498 -0.025100753
-0.14007045 -0.09116173 0.01929536 -0.11359714 -0.043503083 0.11918215 -0.07044589 0.06707176
0.018074395 -0.15300381 0.07176057 -0.22494991 -0.023002235 -0.08381496 0.042478327 -0.10442051
-0.0679148 0.07696205 0.013248285 -0.12740707 0.0355517 0.006598212 0.03608402 0.11317908
0.034016304 0.041233726 0.07287997 -0.0026489072 0.18298095 -0.05256374 0.03091498 0.00548107
-0.06364694 0.024216413 -0.05994871 -0.057289205 0.055067908 -0.021619327 0.14517301 -0.037174072
-0.0321126 -0.05158023 0.123814024 -0.13344346 -0.006875841 0.025274461 0.11532279 0.10381458
0.077872746 -0.04334216 -0.0338659 0.16567567 0.033293948 -0.01367135 -0.035614904 -0.041288797
-0.0772075 -0.13651356 -0.07918064 -0.1443248 0.106191814 -0.08661987 0.047974072 0.03444371
0.017876389 0.02521325 0.059443537 0.099512875 0.18385392 0.08577036 0.0031667217 -0.015756546
-0.034336973 0.047414344 0.038896833 -0.13143598 -0.102876775 0.2079782 0.13477373 -0.06900154
00000000: 584e 443e 9c4d 16be dcd1 0ebe b494 063e
00000010: 9af1 073d 3ca4 75be 67c8 26be d613 adbd
00000020: fb94 72be 7e13 253d c811 58bc 386c ffbd
00000030: fc0b a43d ce97 cc3b 5f4a 743d b3ba cb3d
00000040: e8bd 7abe 2f5d 53be a49c 553e 2d02 63bd
00000050: 8c82 e9bd f88c 7b3c 12fa 87bd 6c98 123c
00000060: fcf4 0ebd 0a71 a7bc b982 cbbd 32fd 94bd
00000070: e9c9 14be b054 30be 8eaa f13d c283 9b3d
00000080: 9787 57be f67a 0abd 57f9 51bd 6946 723c
00000090: e0da 063e 3cfd 0cbe ff17 cbbd cf42 7fbd
000000a0: ed1f d7bd 19ff 3dbe 2590 ebbd 6df7 453e
000000b0: 32d7 c03d 76a9 4abd b4b2 87bd 1479 a0bd
000000c0: 657f 593d 4dec 47bd 545c 7abd 8f91 d8bd
000000d0: 6bc8 4bbd cf74 2d3e 66ca 133e ff30 86bd
000000e0: 5efa 8c3d 5927 7d3b 44e6 b9bc ec55 033e
000000f0: d3d3 89bd 009e 2cbc d82e 973d 06ec 88bd
00000100: 9a5b ff3d ea65 2d3e 8b98 f9bd a3be 44be
00000110: 6e94 363e 728f 4bbd 22e3 b4bd 3726 babd
00000120: c580 1b3d d768 013c 4c3c b43c 3e28 183e
00000130: 2272 11bc e6a7 9fbd 6b0a 02be 68e0 f8bd
00000140: 4fb3 1f3e f9bc d23d 9457 29be 5894 743d
00000150: 264d 2dbe 6968 883d 0e87 c23b 9198 aabd
00000160: 46e1 17be d1fd 00be 71c9 92bd 34ce 1cbb
00000170: 1534 00bd 08be 303e a146 4d3e ccb0 f8bc
00000180: 2df6 9dbd 781f 173c c0d5 8ebc 6bcc 493d
00000190: c0b4 0ebd cd10 e8bd 6ac5 1bbe 323f f3bc
000001a0: 2b53 13be c086 dd3d 476a 1b3e 70d6 5a3d
000001b0: 3d42 b93c 093f eebd c598 a5bd a79c 1abe
000001c0: 6f1e 293d f4f3 2b3c c3d0 ddbc 1865 853d
000001d0: ae34 673d 10eb a0bd 7537 d1bd 0802 9ebd
000001e0: 2398 aabd 08ae b3bd e0bb 5abd f7d9 a23c
000001f0: 7830 bebd b125 673d bc30 7dbd bf54 cb3d
00000200: 8fac dabd 3fa7 7c3e f52c dcbd 0a91 18bd
00000210: f718 1cbd f345 85bd 0c67 98bd 6f5d 803b
00000220: 234b 293d 94c8 223e 260f abbc d913 043e
00000230: a17e dcbc 1aab cc3d 0316 013d 4f8d e2bd
00000240: ad85 723c 7586 913d ac3d 93bc 1102 9dbd
00000250: 12d6 89bd ab99 1a3e 0972 613d ce0c fbbd
00000260: 1c30 c2bd 7e8f 8c3d 7683 5ebd cdba 75bb
00000270: 3ead 083e 64c3 063d d3e5 26bd 734e 5bbd
00000280: 79c6 e83b 22bd 41bd cc9e c63d b81e bcbb
00000290: 4a81 f83d 6429 09bd d528 4dbe a455 43bd
000002a0: aa00 363d 795d 01be 9b72 37bd c492 293d
000002b0: edfb 4fbc c303 f3bc 46bf 9dbd 18a0 cdbc
000002c0: a16e 0fbe 00b3 babd 4e11 9e3c 9ea5 e8bd
000002d0: 4a30 32bd c515 f43d ef45 90bd eb5c 893d
000002e0: c110 943c 08ad 1cbe 35f7 923d 4559 66be
000002f0: 2f6f bcbc 2ea7 abbd c1fd 2d3d 6cda d5bd
00000300: ea16 8bbd 479e 9d3d 560f 593c 0077 02be
00000310: a99e 113d d035 d83b d6cc 133d 6fca e73d
00000320: ae54 0b3d b2e4 283d 1842 953d 4a99 2dbb
00000330: 5c5f 3b3e 144d 57bd 6a41 fd3c 8c9a b33b
00000340: 5459 82bd 8061 c63c c78c 75bd 16a8 6abd
00000350: e38e 613d 041b b1bc 3ca8 143e d743 18bd
00000360: 8088 03bd cb45 53bd 3592 fd3d 67a5 08be
00000370: bc4e e1bb 630c cf3c 5b2e ec3d bd9c d43d
00000380: bf7b 9f3d 8c87 31bd f8b6 0abd e2a6 293e
00000390: 3c5f 083d ccfd 5fbc efe0 11bd 711e 29bd
000003a0: f71e 9ebd 36ca 0bbe 7629 a2bd e1c9 13be
000003b0: 187b d93d c265 b1bd 7680 443d d914 0d3d
000003c0: 8171 923c 058c ce3c 117b 733d 68cd cb3d
000003d0: 3444 3c3e 5fa8 af3d c688 4f3b df13 81bc
000003e0: eda4 0cbd 8b35 423d 4952 1f3d 2797 06be
000003f0: 0fb1 d2bd 3df8 543e 2002 0a3e ae50 8dbd

actor_layers.1.bias f4 [50]
-0.20033541 0.07720897 0.08480855 -0.21540983 0.024014592 -0.02820414 0.1170677 0.0126326075
-0.034798622 0.18888153 0.17847961 -0.03817577 0.013860794 -0.21770287 -0.09068074 -0.09493112
0.1460225 0.31587395 0.0762014 0.07168548 -0.11830081 0.046393007 0.0046177427 0.04423854
0.13371451 -0.13969164 0.15530346 0.09365618 0.16594131 0.07889879 -0.21497914 0.14918466
0.15222345 -0.055006918 -0.26272094 0.1257328 0.13221885 -0.010861223 0.20313528 -0.074374326
0.069612 0.116286516 0.03483635 0.08058918 0.05027093 -0.145793 -0.07115321 0.03842812
-0.27765146 0.13044131
00000000: ba24 4dbe bd1f 9e3d 1bb0 ad3d 6594 5cbe
00000010: 40ba c43c 5e0c e7bc 31c1 ef3d fff8 4e3c
00000020: 0089 0ebd 296a 413e 5cc3 363e 325e 1cbd
00000030: 6218 633c 80ed 5ebe d3b6 b9bd 3f6b c2bd
00000040: ec86 153e 3bba a13e 7b0f 9c3d d6cf 923d
00000050: b247 f2bd 9806 3e3d 6f50 973b 7933 353d
00000060: 75ec 083e 530b 0fbe df07 1f3e d0ce bf3d
00000070: 85ec 293e b095 a13d 7e23 5cbe ddc3 183e
00000080: 77e0 1b3e ef4e 61bd 5c83 86be 19c0 003e
00000090: 6164 073e 45f3 31bc b202 503e 9151 98bd
000000a0: bc90 8e3d a027 ee3d 8fb0 0e3d f10b a53d
000000b0: e4e8 4d3d c34a 15be c6b8 91bd ce66 1d3d
000000c0: 5528 8ebe 6892 053e

actor_layers.2.weight f4 [16, 50]
0.25820598 0.0125792045 -0.011316476 0.015066636 -0.17945667 0.35641962 0.11191836 0.33227825
0.16063857 -0.029065566 -0.04169959 -0.034924537 0.021498809 -0.07439008 -0.074471265 0.3389222
0.094265 0.10207019 -0.17864525 0.07139392 -0.110311955 0.065044604 0.027059136 -0.17552176
-0.12426429 0.17336988 -0.08431957 -0.31158048 0.14599186 0.13927615 0.43679643 0.23451154
0.25364318 0.04765598 0.4672771 -0.08764692 0.023725849 0.017733343 0.048361104 -0.19480003
-0.06286022 0.012429775 0.025759183 0.029343653 -0.29716906 0.030565545 0.039582033 0.09856269
-0.071573354 0.068982765 0.40857628 -0.3277073 0.023680529 -0.049577985 0.09213899 0.52604556
0.050156116 0.05454239 0.12852769 0.07441791 -0.021375481 -0.022068148 0.02041821 0.45244813
0.029486688 0.22979705 0.107675456 0.13231622 0.013981006 0.044343427 -0.048402358 0.08513045
-0.33628413 -0.03999836 0.049511258 -0.28557077 0.10247411 -0.060113803 0.0427641 0.1662653
-0.27550772 0.14948402 -0.030196698 0.037514083 0.43057525 -0.010811756 -0.07243484 0.0067406525
-0.0734229 0.061834406 0.03570027 0.14691347 0.06732851 -0.06924292 0.02178431 0.08663546
-0.0826571 -0.004175387 -0.0029472758 0.010752083 -0.2675246 -0.17919365 0.05705853 0.006142319
0.07399486 0.097750925 0.089232385 -0.06807155 0.14493656 0.09599698 0.023766195 -0.0041669635
0.013250015 1.2784879 -0.063925095 -0.06151463 0.016630968 0.10404983 -0.09328631 0.028074553
-0.03377636 0.07530337 0.05277824 0.064582996 0.14522624 0.016672555 -0.056099698 0.09700284
0.11987354 0.10896156 -0.019130446 0.013609869 -0.039611865 -0.035556868 -0.28770348 0.09770948
-0.060213014 -0.06322856 -0.0669774 0.012094123 0.030303815 0.10527467 -0.009114953 0.031771485
0.0021270497 0.03715961 -0.120899044 -0.10709868 -0.07527503 -0.04233408 -0.00055919273 0.10829415
0.13803422 0.010534409 0.00342524 -0.04377905 0.0647984 -0.010701068 -0.00043753325 0.08050628
-0.018224398 0.106566586 -0.02363937 0.13408868 -0.016988924 0.16930462 0.0032660773 0.04473753
-0.09388045 0.016341152 -0.025863407 0.058586873 0.06826785 -0.00467151 -0.0852298 0.023014616
0.120370045 -0.034621403 -0.020353362 -0.038569123 -0.0017177362 0.1195917 -0.0016090365 0.044848572
-0.0041538016 0.04697302 0.094064854 0.06660088 0.10017145 -0.07307065 0.021560682 0.01079709
-0.06629025 0.18981901 0.06399557 -0.017768439 -0.06180559 -0.013289257 0.078988165 0.118554816
0.32017818 -0.25729507 0.1301123 0.036714144 -0.064123824 0.5355843 -0.019222945 0.06949773
0.1164231 0.06704653 0.07773794 -0.021909704 0.017117348 0.42836162 -0.07518056 0.4165545
0.034877155 0.03503714 -0.020045623 0.046372455 -0.18680212 0.09736905 -0.3665266 -0.15715002
0.0639784 0.056393076 -0.063168146 -0.15822493 0.16560686 0.15578704 0.012868389 -0.029559232
0.2069942 0.08163662 0.32944512 0.02033149 -0.052024536 -0.054331508 -0.06122763 -0.035789814
0.10371171 0.09083059 0.06701839 0.060843997 3.5103665e-05 0.010542771 -0.080995806 0.00016297752
-0.11397217 0.10525117 0.022614188 0.00033849064 0.055051703 0.032390323 0.122357406 -0.26130503
00000000: 9333 843e 0219 4e3c be68 39bc 0dda 763c
00000010: 7dc3 37be a27c b63e 7435 e53d 6020 aa3e
00000020: 707e 243e e91a eebc 30cd 2abd 080d 0fbd
00000030: 451e b03c d459 98bd 6484 98bd 3687 ad3e
00000040: 020e c13d 2d0a d13d c8ee 36be fa36 923d
00000050: 3ceb e1bd 1b36 853d 1fab dd3c fabb 33be
00000060: 477e febd e087 313e bdaf acbd 7a87 9fbe
00000070: e47e 153e 689e 0e3e c8a3 df3e cb23 703e
00000080: 85dd 813e eb32 433d f23e ef3e 3a80 b3bd
00000090: b65c c23c 8445 913c 4b16 463d a979 47be
000000a0: dcbc 80bd 41a6 4b3c ec04 d33c 1a62 f03c
000000b0: 8b26 98be 9864 fa3c c520 223d 3cdb c93d
000000c0: 0d95 92bd d646 8d3d e930 d13e 40c9 a7be
000000d0: abfd c13c 4912 4bbd 5eb3 bc3d ecaa 063f
000000e0: 8070 4d3d d767 5f3d c39c 033e 6b68 983d
000000f0: a21b afbc 43c8 b4bc 1744 a73c 48a7 e73e
00000100: 118e f13c eb4f 6b3e f384 dc3d e77d 073e
00000110: 9710 653c 74a1 353d 8d41 46bd e058 ae3d
00000120: 6f2d acbe 52d5 23bd 51cc 4a3d 5536 92be
00000130: f2dd d13d e439 76bd 6929 2f3d 7341 2a3e
00000140: 590f 8dbe 5712 193e 115f f7bc 5ea8 193d
00000150: 5c74 dc3e cb23 31bc b858 94bd b1e0 dc3b
00000160: bf5e 96bd 1346 7d3d 723a 123d 7c70 163e
00000170: 88e3 893d 3bcf 8dbd 0275 b23c ef6d b13d
00000180: 2048 a9bd afd1 88bb 1527 41bb 8129 303c
00000190: fcf8 88be 8a7e 37be 35b6 693d 8245 c93b
000001a0: 9e8a 973d a331 c83d 78bf b63d 1969 8bbd
000001b0: 406a 143e 119a c43d 53b1 c23c 068b 88bb
000001c0: 9716 593c 7ea5 a33f 29eb 82bd c4f6 7bbd
000001d0: ab3d 883c 1418 d53d e50c bfbd 9bfc e53c
000001e0: 1559 0abd a738 9a3d ff2d 583d 1744 843d
000001f0: 30b6 143e e294 883c ccc8 65bd 6da9 c63d
00000200: 4280 f53d 3d27 df3d 74b7 9cbc eefb 5e3c
00000210: 0d40 22bd 14a4 11bd df4d 93be e81b c83d
00000220: eca1 76bd fa7d 81bd 722b 89bd 6e26 463c
00000230: b53f f83c 3f9a d73d e256 15bc d122 023d
00000240: f965 0b3b ad34 183d eb99 f7bd 8e56 dbbd
00000250: cc29 9abd 8066 2dbd ca96 12ba 53c9 dd3d
00000260: d858 0d3e 8498 2c3c fe79 603b a951 33bd
00000270: 06b5 843d 8853 2fbc b864 e5b9 7ae0 a43d
00000280: 554b 95bc 953f da3d 5aa7 c1bc 8b4e 093e
00000290: 5b2c 8bbc 315e 2d3e af0b 563b b33e 373d
000002a0: 6544 c0bd e1dd 853c 7fdf d3bc caf8 6f3d
000002b0: 04d0 8b3d 7713 99bb f68c aebd 2689 bc3c
000002c0: 9284 f63d 2ccf 0dbd 18bc a6bc a8fa 1dbd
000002d0: aa25 e1ba 7eec f43d 4ee6 d2ba 23b3 373d
000002e0: 9d1c 88bb c866 403d 13a5 c03d 0b66 883d
000002f0: b026 cd3d 11a6 95bd 07a0 b03c 47e6 303c
00000300: 2fc3 87bd ea5f 423e 1c10 833d 1e8f 91bc
00000310: dc27 7dbd 2fbb 59bc 8cc4 a13d decc f23d
00000320: 65ee a33e 2ebc 83be 293c 053e 9261 163d
00000330: 5a53 83bd 0d1c 093f 7079 9dbc d354 8e3d
00000340: 3c6f ee3d b14f 893d 1235 9f3d fb7b b3bc
00000350: ae39 8c3c 3752 db3e 44f8 99bd a246 d53e
00000360: 59db 0e3d 1b83 0f3d b836 a4bc 0bf1 3d3d
00000370: 0e49 3fbe 6d69 c73d 60a9 bbbe efeb 20be
00000380: 1b07 833d 6dfc 663d 4d5e 81bd b705 22be
00000390: d894 293e a386 1f3e efd5 523c 3426 f2bc
000003a0: 4af6 533e 1a31 a73d 08ad a83e 3a8e a63c
000003b0: ae17 55bd b78a 5ebd d3c9 7abd 5798 12bd
000003c0: ce66 d43d 6305 ba3d f040 893d 8e37 793d
000003d0: 463c 1338 96bb 2c3c 21e1 a5bd f2e4 2a39
000003e0: 3e6a e9bd ed8d d73d 6441 b93c 7277 b139
000003f0: e57d 613d b7ab 043d 8596 fa3d c6c9 85be

actor_layers.2.bias f4 [16]
-0.0918575 0.12358955 0.09616085 0.07034321 -0.096616544 0.15301178 -0.056484826 -0.07591978
0.07852633 0.19892225 -0.0018651951 -0.061309274 0.13006563 0.08868755 -0.028286265 -0.31806022
00000000: c91f bcbd 851c fd3d fbef c43d 1a10 903d
00000010: e5de c5bd 1faf 1c3e a25c 67bd d47b 9bbd
00000020: 6ad2 a03d 46b2 4b3e 9079 f4ba 6f1f 7bbd
00000030: ed2f 053e d1a1 b53d 99b8 e7bc cad8 a2be

critic_layers.0.weight f4 [50, 20]
0.06009445 -0.16585255 0.20146954 -0.11144585 0.0037943597 0.025047442 -0.14700717 0.099356025
-0.04095431 -0.1086464 0.19794838 -0.018400898 -0.025280315 0.11903237 0.08057199 -0.021158934
-0.32848626 -0.04349076 0.009176495 -0.002454578 -0.07364281 -0.044882625 0.03122 0.024654105
-0.054926235 0.059056886 0.06939326 -0.2984332 0.057592902 -0.18779965 -0.12015149 -0.10689952
0.10389621 0.23006524 0.17343712 -0.01598945 -0.0136273 0.027380185 0.036735103 -0.065542914
0.14388512 -0.0020982516 -0.048639752 -0.060802646 0.07371964 0.0015209058 0.17899951 -0.061602194
-0.19730802 0.20267817 -0.10619999 0.12418527 -0.019224094 -0.061280128 0.05914711 -0.008740997
-0.120883025 -0.03023359 0.018475488 0.019036341 -0.06504839 -0.045191605 0.18160848 0.21466663
-0.17739889 0.26593485 0.043782882 0.20846282 -0.08765958 0.24162701 0.03407003 0.016151119
0.053116295 0.22651917 0.028861454 -0.054483924 -0.276019 0.012187672 0.071182616 0.05632267
-0.2787723 -0.06959397 -0.014338304 -0.036160827 -0.033290863 -0.038029592 0.021710858 0.019956928
0.04154487 -0.0030277625 -0.06300608 -0.10250017 -0.053574625 0.016362192 -0.0070268526 -0.02731614
0.24549629 -0.0903813 -0.21860768 -0.06418092 0.009868521 0.03244278 0.061256215 -0.16384451
-0.02265887 -0.02063543 -0.03397696 -0.22179809 -0.012998632 0.0641469 -0.06493297 -0.10691375
-0.10085784 0.036399655 -0.07993584 0.0049310885 -0.31815457 0.0015799475 0.019446103 0.11225258
-0.08438834 -0.027703403 0.037798293 -0.13834152 -0.045783233 -0.0074389377 0.049871508 -0.00055993436
-0.017646806 0.11890291 -0.11260722 -0.12438593 0.024998428 -0.07897656 0.08940403 -0.18577172
0.17200617 0.09126866 0.11263326 0.16306038 -0.17409371 -0.06915977 -0.13675557 0.03639084
-0.13097548 0.08490375 -0.10611778 -0.09153242 -0.08493351 -0.20938379 0.06516919 0.18340957
-0.11130082 -0.15160616 -0.07105366 -0.22144611 -0.17235363 0.095522396 -0.020852504 0.03433657
0.0052134143 -0.012196078 0.001308366 0.15572758 0.109805435 -0.017608192 -0.03726285 -0.017759768
-0.028662045 0.09173058 0.119888276 -0.13105622 -0.048040923 -0.17642978 -0.2701521 -0.058564164
-0.03851668 -0.12924574 -0.0168565 -0.042918406 -0.053729244 -0.043537486 -0.19441213 0.14747539
-0.04094205 0.1642012 0.059466463 0.029905492 -0.03403118 -0.14594573 0.05779682 -0.011492995
-0.11081167 0.066840254 0.108307905 0.021138377 -0.19668509 0.013883316 -0.057876542 0.0069823177
-0.085360415 0.044268332 0.02946268 0.052923426 -0.033986017 -0.10538638 -0.16537784 -0.063299604
-0.11819931 0.08311487 -0.031779144 0.032066602 -0.24018984 -0.10043713 0.18914144 0.011026541
-0.23011206 0.0067258975 -0.030643558 -0.115832634 0.17591926 -0.047462385 -0.0076623773 -0.060562715
-0.09564287 -0.040385645 0.101922736 -0.093762435 -0.003082953 -0.17560478 -0.055928085 0.128113
-0.10740268 0.06930088 0.07595856 0.106466055 0.1673557 -0.096140735 -0.08826588 -0.0409022
0.01607698 0.014503578 0.21676654 0.004846613 0.007799045 -0.010797089 0.18505177 -0.009991203
0.17771134 0.008231602 0.27314344 0.009332239 -0.02986817 -0.005081096 0.11642014 -0.012620727
00000000: 9925 763d 40d5 29be 084e 4e3e b93d e4bd
00000010: cbaa 783b 4b30 cd3c 0c89 16be 2c7b cb3d
00000020: b5bf 27bd 0182 debd fbb2 4a3e 7bbd 96bc
00000030: aa18 cfbc 3ec7 f33d ed02 a53d 8055 adbc
00000040: 5a2f a8be 5e23 32bd 0259 163c fcdc 20bb
00000050: 0bd2 96bd d8d6 37bd 16c1 ff3c 68f7 c93c
00000060: 55fa 60bd a2e5 713d 0e1e 8e3d 3dcc 98be
00000070: 89e6 6b3d 8d4e 40be fc11 f6bd 23ee dabd
00000080: 89c7 d43d 3996 6b3e 8099 313e 4ffc 82bc
00000090: 0a45 5fbc 694c e03c 8c77 163d 5d3b 86bd
000000a0: 9f56 133e d282 09bb 7a3a 47bd 320c 79bd
000000b0: 53fa 963d 2159 c73a a64b 373e 9552 7cbd
000000c0: 1d0b 4abe de8a 4f3e 617f d9bd d954 fe3d
000000d0: d97b 9dbc df00 7bbd 3d44 723d 6636 0fbc
000000e0: 8591 f7bd 6fac f7bc e859 973c 1af2 9b3c
000000f0: 1738 85bd d51a 39bd 93f7 393e 92d1 5b3e
00000100: 0ea8 35be 9d28 883e ae55 333d 4777 553e
00000110: de86 b3bd 126d 773e 048d 0b3d 5a4f 843c
00000120: 7990 593d a4f4 673e db6e ec3c 892a 5fbd
00000130: 5d52 8dbe cdae 473c 31c8 913d 9ab2 663d
00000140: 3ebb 8ebe 4987 8ebd 35eb 6abc 601d 14bd
00000150: 005c 08bd ebc4 1bbd f8da b13c b67c a33c
00000160: f42a 2a3d 6d6d 46bb 5509 81bd 9ceb d1bd
00000170: 1171 5bbd 010a 863c 8341 e6bb 19c6 dfbc
00000180: 6163 7b3e d519 b9bd b1da 5fbe 4971 83bd
00000190: 94af 213c b8e2 043d cce7 7a3d dbc6 27be
000001a0: 189f b9bc a20b a9bc 6d2b 0bbd 0a1f 63be
000001b0: 37f8 54bc 735f 833d 94fb 84bd 99f5 dabd
000001c0: 8e8e cebd ce17 153d 67b5 a3bd f894 a13b
000001d0: 28e5 a2be 3e16 cf3a 6f4d 9f3c aee4 e53d
000001e0: cbd3 acbd 3ff2 e2bc 62d2 1a3d 66a9 0dbe
000001f0: 3387 3bbd 55c2 f3bb 1146 4c3d 8fc8 12ba
00000200: 0990 90bc 5e83 f33d 9d9e e6bd 0dbe febd
00000210: 81c9 cc3c 76be a1bd 7619 b73d f13a 3ebe
00000220: 6322 303e 10eb ba3d 44ac e63d 4df9 263e
00000230: 9f45 32be a3a3 8dbd a709 0cbe 900e 153d
00000240: 701e 06be 04e2 ad3d 4754 d9bd 5975 bbbd
00000250: 9ff1 adbd b468 56be 6d77 853d b8cf 3b3e
00000260: aff1 e3bd a53e 1bbe 9584 91bd c5c2 62be
00000270: 787d 30be 3fa1 c33d dfd2 aabc 81a4 0c3d
00000280: 4ad5 aa3b 0fd2 47bc 7a7d ab3a 0d77 1f3e
00000290: ace1 e03d 0e3f 90bc eea0 18bd ef7c 91bc
000002a0: aacc eabc 3edd bb3d fc87 f53d 9a33 06be
000002b0: 8fc6 44bd 02aa 34be 6051 8abe fae0 6fbd
000002c0: abc3 1dbd ff58 04be a516 8abc 36cb 2fbd
000002d0: 3213 5cbd 5d54 32bd f913 47be ca03 173e
000002e0: dab2 27bd 5c24 283e 1b93 733d 5dfc f43c
000002f0: 4764 0bbd cc72 15be 5cbc 6c3d 1d4d 3cbc
00000300: 3bf1 e2bd 8be3 883d 89d0 dd3d 642a ad3c
00000310: d167 49be d976 633c f40f 6dbd edcb e43b
00000320: 71d1 aebd b652 353d b85b f13c 3cc6 583d
00000330: ec34 0bbd d0d4 d7bd cf58 29be 39a3 81bd
00000340: 7b12 f2bd 2138 aa3d d92a 02bd 4558 033d
00000350: 53f4 75be fbb1 cdbd 4bae 413e aaa8 343c
00000360: 7fa2 6bbe eb64 dc3b 3308 fbbc a939 edbd
00000370: 2e24 343e eb67 42bd ae14 fbbb 9c10 78bd
00000380: 69e0 c3bd 6b6b 25bd debc d03d 8506 c0bd
00000390: 5e0b 4abb bdd1 33be d914 65bd 0e30 033e
000003a0: f0f5 dbbd 9fed 8d3d 2990 9b3d e00a da3d
000003b0: 4b5f 2b3e 6fe5 c4bd bec4 b4bd 1189 27bd
000003c0: dfb3 833c 6aa0 6d3c 0cf8 5d3e 56d0 9e3b
000003d0: 228f ff3b 46e6 30bc 367e 3d3e 25b2 23bc
000003e0: f6f9 353e d7dd 063c 75d9 8b3e 3fe6 183c
000003f0: 18ae f4bc 537f a6bb af6d ee3d 2ac7 4ebc

critic_layers.0.bias f4 [50]
-0.05209455 0.117536634 -0.10643755 0.26744226 -0.21231991 0.06783842 0.14191656 0.10337994
0.2022191 -0.2526215 -0.058544528 0.018759426 -0.12449223 0.18833931 0.368008 0.106526285
0.119689874 0.1269292 -0.16640043 0.04409403 -0.07921538 0.053950924 0.012019418 0.13524866
-0.028651852 0.032852847 -0.05178653 0.12872873 -0.15815084 -0.15458576 0.25737497 -0.17693177
0.42570254 0.10030732 0.14571323 0.26979324 -0.08483803 -0.12185279 -0.18646227 -0.047359854
-0.04234192 -0.06319356 0.13336475 0.23162115 -0.13010897 0.19438635 -0.31917328 0.12759128
-0.059707563 0.042683724
00000000: 1861 55bd 0cb7 f03d eefb d9bd 31ee 883e
00000010: 646a 59be dfee 8a3d 9352 113e ddb8 d33d
00000020: 8612 4f3e 9b57 81be 63cc 6fbd 5ead 993c
00000030: c8f5 febd 05dc 403e 8b6b bc3e 742a da3d
00000040: f71f f53d baf9 013e e064 2abe f19b 343d
00000050: ac3b a2bd a5fb 5c3d 18ed 443c a07e 0a3e
00000060: 4ab7 eabc b590 063d 1d1e 54bd 77d1 033e
00000070: 4bf2 21be bb4b 1ebe a7c6 833e 9a2d 35be
00000080: aff5 d93e ed6d cd3d d935 153e 5722 8a3e
00000090: 90bf adbd f58d f9bd f7ef 3ebe 68fc 41bd
000000a0: b96e 2dbd a06b 81bd c590 083e 182e 6d3e
000000b0: 493b 05be 370d 473e ae6a a3be 4aa7 023e
000000c0: eb8f 74bd 21d5 2e3d

critic_layers.1.weight f4 [50, 50]
-0.08799798 0.052949555 0.04842693 -0.001493668 0.08090834 -0.061288547 0.10533231 0.07225885
-0.034065533 0.045008123 -0.018808039 0.12482087 0.07127859 -0.088998675 -0.03438848 0.084508054
0.054272544 0.15148763 -0.08585388 -0.008267007 -0.071754865 -0.027389575 0.10159635 0.0617048
-0.010403907 -0.07998986 -0.066408046 -0.059409536 0.08074518 -0.0056414087 -0.0921259 0.074319996
0.102535576 -0.051798657 0.10614614 -0.12744284 0.02817213 -0.058848802 0.042514928 0.16625564
-0.01087396 -0.0851192 0.022795964 0.118618116 0.09743974 0.03690043 -0.08631468 -0.033994205
0.028886382 0.0031533237 0.15142207 0.025453981 0.061700083 -0.032074742 -0.15226838 0.10327748
-0.121534415 0.05482011 0.08699131 0.040503815 0.067655414 -0.11883176 0.12280101 0.074155375
0.0957004 0.017941086 0.080574036 -0.11446457 0.07174682 0.03402263 0.010521919 -0.021818662
0.034792103 0.057588425 -0.051588044 0.046471674 -0.021668006 0.066825286 -0.1652392 -0.09625755
7.073135e-05 -0.14336506 0.043102477 0.10733236 -0.039162338 0.08218771 0.055668138 0.017112326
-0.013798701 0.052427392 -0.036919534 0.07134877 0.018715277 0.04655198 0.069390275 -0.097929575
-0.09432731 0.03474829 0.010180301 0.16606651 0.051084936 -0.0873397 0.08476824 0.00031950694
0.07482039 -0.08918401 -0.038803138 0.08141535 0.057109445 0.018903455 -3.5487938e-05 -0.10880502
0.019502439 0.049006265 -0.043135293 0.06806287 0.004821198 0.09235872 -0.06552325 -0.0775601
-0.06452045 -0.049777187 0.011951647 0.013024824 -0.06961325 -0.054258276 -0.13025454 0.0008185292
0.0055983546 -0.0068580857 0.13668254 0.15265495 -0.080493085 0.05252157 0.063579485 -0.113614164
-0.117645204 0.06967175 0.06979708 0.041163385 0.04493089 0.010934031 -0.025999447 0.103
-0.08338045 -0.18072791 0.067694224 -0.013742035 -0.13305768 0.061775275 -0.20352599 -0.032384176
-0.006099203 -0.021026395 0.033784177 -0.014513458 -0.10603043 0.07457281 -0.11744493 -0.12687209
0.016234716 -0.13801941 -0.14727163 0.0956221 -0.055984855 0.080087475 0.07065036 0.09893589
0.032795064 -0.0990029 0.023451963 0.10463852 0.0075415974 -0.06867449 0.007875103 0.063799396
0.055958737 -0.08506379 -0.034459595 -0.13884567 0.018802645 -0.04264286 -0.20476924 -0.048053734
-0.12070208 0.026017027 0.066434056 -0.15406683 -0.12655008 0.010411872 -0.12111372 0.064700976
-0.12995924 -0.18147984 -0.068460174 0.03900774 -0.017792296 -0.047760732 -0.20418201 0.04070302
0.05472509 -0.08269217 0.047868483 -0.0577248 0.06109602 0.083689176 -0.06694238 -0.006959035
0.031265505 -0.12010615 0.0110281 0.0978786 0.103522606 -0.047483303 0.06517835 0.019441003
0.07472923 -0.07442347 0.11304558 0.092847794 -0.13725077 -0.050043855 -0.016293455 0.1254333
-0.11691746 0.038804773 -0.034888115 -0.03908841 -0.07805421 0.031776823 0.0052562654 -0.07208034
-0.00064710266 -0.065454334 0.07771531 -0.036681026 -0.1626208 0.013843148 -0.05959745 0.03972376
-0.16791765 -0.1411122 0.015695345 -0.021875048 -0.12655838 0.13749488 0.084748074 -0.000998083
0.0038677335 -0.20742808 0.059058137 -0.11740408 0.011186437 0.018655285 -0.030773291 0.045521587
00000000: 4938 b4bd a2e1 583d 515b 463d 2ec7 c3ba
00000010: 46b3 a53d b309 7bbd 77b8 d73d 73fc 933d
00000020: 4d88 0bbd 705a 383d 5113 9abc 16a2 ff3d
00000030: 82fa 913d f044 b6bd efda 0cbd 8f12 ad3d
00000040: e34c 5e3d 931f 1b3e 29d4 afbd 5772 07bc
00000050: 37f4 92bd 1a60 e0bc bf11 d03d 2cbe 7c3d
00000060: 2675 2abc b9d1 a3bd f100 88bd 6a57 73bd
00000070: bb5d a53d 91db b8bb 81ac bcbd 1535 983d
00000080: 2cfe d13d d42a 54bd 2663 d93d 6080 02be
00000090: 3dc9 e63c 710b 71bd 2224 2e3d eb3e 2a3e
000000a0: b228 32bc fa52 aebd 9abe ba3c 0eee f23d
000000b0: 7d8e c73d e824 173d c0c5 b0bd 823d 0bbd
000000c0: 22a3 ec3c fea7 4e3b 630e 1b3e de84 d03c
000000d0: 3ab9 7c3d ce60 03bd 3eec 1bbe 2583 d33d
000000e0: 09e7 f8bd 0d8b 603d 8028 b23d 54e7 253d
000000f0: ec8e 8a3d 115e f3bd 197f fb3d c6de 973d
00000100: 92fe c33d 2ff9 923c 0004 a53d 676c eabd
00000110: ffef 923d 505b 0b3d 2064 2c3c 0dbd b2bc
00000120: 2a82 0e3d d7e1 6b3d fc4d 53bd 1559 3e3d
00000130: 1a81 b1bc b2db 883d 7734 29be ae22 c5bd
00000140: 9b55 9438 4ace 12be 398c 303d 12d1 db3d
00000150: b068 20bd 0852 a83d 4604 643d 262f 8c3c
00000160: f213 62bc 1bbe 563d f038 17bd 4e1f 923d
00000170: c850 993c 4aad 3e3d 7d1c 8e3d 4d8f c8bd
00000180: ad2e c1bd 3954 0e3d 47cb 263c 570d 2a3e
00000190: 703e 513d 28df b2bd f99a ad3d 7f83 a739
000001a0: 6f3b 993d 1ba6 b6bd 0af0 1ebd 17bd a63d
000001b0: 98eb 693d 6bdb 9a3c e2d8 14b8 2bd5 debd
000001c0: 94c3 9f3c cbba 483d a2ae 30bd 8c64 8b3d
000001d0: 24fb 9d3b 9226 bd3d 0e31 86bd d4d7 9ebd
000001e0: 4c23 84bd 2ae3 4bbd d7d0 433c 1266 553c
000001f0: 6491 8ebd ed3d 5ebd 7261 05be 9192 563a
00000200: 6772 b73b cbb9 e0bb 82f6 0b3e 9451 1c3e
00000210: 8fd9 a4bd dc20 573d f635 823d 8bae e8bd
00000220: f8ef f0bd 10b0 8e3d c5f1 8e3d f09a 283d
00000230: 7409 383d a624 333c cbfc d4bc aaf1 d23d
00000240: 5fc3 aabd bd10 39be 45a3 8a3d 4626 61bc
00000250: 4640 08be 1208 7d3d 1e69 50be 45a5 04bd
00000260: d3db c7bb 8c3f acbc 4761 0a3d dbc9 6dbc
00000270: 7b26 d9bd a1b9 983d f886 f0bd c2ea 01be
00000280: abfe 843c f654 0dbe 60ce 16be 85d5 c33d
00000290: 6050 65bd e704 a43d 23b1 903d e69e ca3d
000002a0: 1e54 063d 08c2 cabd 551e c03c b84c d63d
000002b0: 811f f73b 36a5 8cbd 9306 013c 42a9 823d
000002c0: fd34 653d ed35 aebd 8125 0dbd 8f2d 0ebe
000002d0: 0108 9a3c 48aa 2ebd 07af 51be fed3 44bd
000002e0: a732 f7bd a921 d53c 940e 883d b2c3 1dbe
000002f0: 5896 01be 8e96 2a3c 780a f8bd f281 843d
00000300: 0914 05be dad5 39be d934 8cbd 94c6 1f3d
00000310: 26c1 91bc c2a0 43bd 1715 51be 36b8 263d
00000320: 6a27 603d 835a a9bd be11 443d d770 6cbd
00000330: d23f 7a3d 3b65 ab3d 1619 89bd 9e08 e4bb
00000340: 4210 003d 37fa f5bd 34af 343c 9374 c83d
00000350: a903 d43d da7d 42bd 3a7c 853d bd42 9f3c
00000360: a30b 993d 556b 98bd 7184 e73d fc26 be3d
00000370: 778b 0cbe c9fa 4cbd da79 85bc 9671 003e
00000380: 6c72 efbd c1f1 1e3d d7e6 0ebd 2b1b 20bd
00000390: e3da 9fbd 6a28 023d c03c ac3b db9e 93bd
000003a0: 53a2 29ba ec0c 86bd 3429 9f3d d83e 16bd
000003b0: 1186 26be 5fce 623c 751c 74bd 62b5 223d
000003c0: 9bf2 2bbe b77f 10be 8693 803c 4d33 b3bc
000003d0: 8598 01be 75cb 0c3e 6690 ad3d 1cd2 82ba
000003e0: cd79 7d3b 0768 54be f2e6 713d 8d71 f0bd
000003f0: 5147 373c f8d2 983c 4518 fcbc d874 3a3d

critic_layers.1.bias f4 [50]
0.20344624 0.08399981 -0.13821678 0.019229883 -0.026821923 0.17351736 -0.11172179 -0.14234067
0.13607657 0.23056455 -0.036084913 0.055083636 0.18427919 -0.044012345 0.064113066 -0.076417506
0.03273608 -0.0025975003 0.0460412 -0.022325976 -0.08164582 -0.110603124 -0.15366797 0.13381737
0.115938984 0.10496995 0.03930552 0.099422984 0.04272601 -0.11468527 -0.06843525 0.048420385
0.15239385 0.16071993 0.15753026 -0.057125553 0.09829446 0.07872637 -0.242307 0.012557057
0.011334899 -0.033003863 -0.0442688 -0.10151355 -0.014581877 0.019162798 0.038484737 0.060621664
0.10391977 -0.16362767
00000000: 3654 503e 1808 ac3d b388 0dbe fd87 9d3c
00000010: a6b9 dbbc 89ae 313e 65ce e4bd c1c1 11be
00000020: a857 0b3e 1d19 6c3e c6cd 13bd 619f 613d
00000030: afb3 3c3e 4a46 34bd b64d 833d c880 9cbd
00000040: 4516 063d d33a 2abb b395 3c3d f7e4 b6bc
00000050: ec35 a7bd e483 e2bd 235b 1dbe 6c07 093e
00000060: 6b71 ed3d 7cfa d63d d3fe 203d 479e cb3d
00000070: 7801 2f3d 1ce0 eabd c827 8cbd 7454 463d
00000080: 220d 1c3e c493 243e 9d4f 213e 7cfc 69bd
00000090: 9b4e c93d 4b3b a13d 541f 78be 1dbc 4d3c
000000a0: 03b6 393c 0f2f 07bd 3453 35bd 56e6 cfbd
000000b0: d3e8 6ebc 4dfb 9c3c 2ca2 1d3d 6c4e 783d
000000c0: e3d3 d43d 038e 27be

critic_layers.2.weight f4 [1, 50]
0.02162082 -0.14272743 -0.04351712 0.038920928 -0.027690727 0.016222665 -0.07058342 -0.07742135
0.03280488 0.021406986 0.0431164 0.056480825 0.05618862 -0.10969356 0.04672553 0.038783967
0.073214605 -0.07944206 0.027666595 -0.025428558 -0.022502156 -0.05436377 -0.14412463 0.020422691
0.044660583 0.044780996 -0.018286468 0.028596602 0.053365584 -0.022460734 0.1469524 0.040894255
0.081736475 0.030217841 0.042255048 0.032403234 0.015778087 0.12583883 0.031778313 0.05053863
-0.051047713 0.1027781 0.015775714 0.10941572 -0.041213516 -0.037751146 0.029309882 -0.10409791
0.04386405 -0.14978334
00000000: 251e b13c 2427 12be 023f 32bd 8d6b 1f3d
00000010: aad7 e2bc 65e5 843c 0a8e 90bd 168f 9ebd
00000020: 695e 063d b45d af3c d29a 303d 7058 673d
00000030: 0a26 663d 04a7 e0bd 4563 3f3d f0db 1e3d
00000040: 8af1 953d 85b2 a2bd 0ea5 e23c 8d4f d0bc
00000050: 7156 b8bc 8bac 5ebd 6895 13be 7d4d a73c
00000060: 04ee 363d 476c 373d 81cd 95bc 6c43 ea3c
00000070: df95 5a3d 93ff b7bc b17a 163e bc80 273d
00000080: 7465 a73d 688b f73c a113 2d3d 41b9 043d
00000090: 0c41 813c e5db 003e fa29 023d 9801 4f3d
000000a0: 6817 51bd 537d d23d 123c 813c 5915 e03d
000000b0: 81cf 28bd f2a0 1abd 471b f03c 4931 d5bd
000000c0: caaa 333d ce60 19be
